model/best_model.tflite (tflite, 938808 bytes, 8 tensors)

arith.constant f4 [37, 128]
00000000: 5cea 3dbe d178 423e 31ff 783e fbe8 d7bd
00000010: e57a 3f3d 63df 3e3e 3f35 933d d60b 3d3e
00000020: a878 ba3c acb4 8e3d 5b99 b2bd d27a 6ebe
00000030: e64c 37be 3d27 b0bd b7c4 203c 4b1e 6bbe
00000040: daf3 963d 3010 4abe 4446 7bbe 7dbe babd
00000050: 12d8 603d e808 3ebd 3862 103d 04d6 16be
00000060: 1934 73bd b9d1 0dbe 6e84 97bc 5fd9 4ebd
00000070: 4e3c 513d 4d48 503d f593 64be f7c2 84be
00000080: a7a8 44be a92e b83d 7028 963c 01aa 80bd
00000090: 77d4 36be a2e8 36be 5de9 cbbd 6e08 2ebe
000000a0: 19c0 8bbd b384 343e eb8e 83bd 82eb 6cbd
000000b0: a041 c5bd 5d80 183e b77f 0f3e c6e2 08bd
000000c0: 96b5 aabd efc3 dfbb 6c3b 9cbd c237 513e
000000d0: d115 13be 7e38 97bd 0438 07be 2369 783d
000000e0: dd51 0ebe df83 1bbe 7bee c53d 5462 e83d
000000f0: 354f 01bd c12f c83d fcfe 81bc 7329 b3bd
00000100: e100 48be 3bb6 45be 9a14 1fbe 5d32 bd3d
00000110: 6a1c 353e 9e06 84bd 5c7b d63d 2cd7 36bd
00000120: 3d78 5bbe 57ad 32be 91af 433e 6368 b33d
00000130: 1efd db3d 9dfc 98bd 199e 60be 248c 2cbe
00000140: 1656 3ebe 10eb 123d 9d19 383d 9be4 b53d
00000150: 4be1 11be 1445 07bd 5e84 06be ca8d ae3d
00000160: de9f d33d 7124 a33d 9a68 d8bb 997a b6bc
00000170: 7411 d5bc f44a 1d3e 5372 773e bfb1 0d3e
00000180: 1c78 07be 71c5 f33c d38b 133e 9af4 19bc
00000190: 5b9b af3d 0216 15bd e4a9 2dbe e648 163e
000001a0: c225 943d 44b4 2ebe 48fe 27be bec0 193d
000001b0: 1ce8 843e b4aa 31be 4b8c d5bd 6144 1fbe
000001c0: 8e7b e23d 4755 113d 5722 693e d158 e4bd
000001d0: 542e 37be ee91 e0bc 5bb9 773d 1f9c 5cbe
000001e0: 69cf 71be 8755 04bd 4617 9c3c e10b ebbd
000001f0: b162 023d 373f 7bbd b439 a23d 183f cdbc
00000200: 913d 56be 457a fd3c 967f 023e f69d 58bd
00000210: 8c3b 3e3d 60ba 06be ee83 55be 5d9a 9ebd
00000220: a057 d3bd c241 8abd 5557 0fbe e6b1 a03d
00000230: f87e c33d dec3 f33c af0d e43d 919f 853e
00000240: dad7 a73d 8513 4fbe 1746 71be 7896 43be
00000250: f6ef 98bc 7e25 4c3e 14cd 91bd eab6 843e
00000260: 5652 7c3d 3330 f1bd 4eeb 6cbe bea1 d5bd
00000270: 615f 133d 8f3c 103e 9a27 173e b109 95bd
00000280: b64e dbbd 194a 2fbe 214b b43c 6bee 42be
00000290: cb1a 6b3d 77d9 b2bc fba9 f73d 3d8b 13be
000002a0: 002d fabd 12b8 a03d baa5 1cbe b91f 3abd
000002b0: 82ce 21be 8d17 79bd c8da 0d3d 6831 cc3d
000002c0: 35bb acbc f032 55be 5c4e 4cbd f38e 9fbd
000002d0: 9b60 8a3b 36f3 ff3d 2165 863e 85a9 f13d
000002e0: b9b9 1abe e5d3 773e a9eb 423d c325 d93d
000002f0: 4092 213e cb8b f43c 489d 4dbe 8f33 74be
00000300: 51a3 223d d911 ff3d af6b c4bd 699e af3d
00000310: 7488 36bc 456f 83bd 316e 5abe f51f 603e
00000320: 405f 36be c251 22be 8c8c c0bc 5a3b 5abe
00000330: 17d7 023e c48e b8bc e3cc 8d3d d70a 27be
00000340: a2f9 2fbe 0638 ba3c 33e3 32be e722 3abe
00000350: 029b cb3d 9ea9 4d3e 8335 f73d 9e7f febb
00000360: cdb9 60bd bc4e 67be a9b1 f83d c616 183e
00000370: 29d6 a6b9 300f 80be 093c 2f3e 4b4f 143e
00000380: 91e2 f63d 6b8b 0e3e 3b91 e3bd 092c 0dbe
00000390: 9a48 05be 410b 31be ce81 e8bd 69d1 e0bc
000003a0: 6b27 5fbe cfee 0e3e caf1 603d 342e 16bd
000003b0: 5de3 08be a2a3 423e 7b56 b43d 962c d23d
000003c0: 795f e5bd ccd3 46be c70a 4c3d 1f24 47bd
000003d0: 6a74 69be f6db 25be 67eb fc3d 61ea aabd
000003e0: bc7f e53c cf91 ae3d 1fa8 3ebe ea91 93bc
000003f0: 2546 0f3d 4f69 1ebe e608 0fbe 66d4 34be
-0.18546432 0.189914 0.24316098 -0.105424844 0.04674806 0.18639903 0.0718789 0.18461546
0.022762612 0.06968054 -0.087206565 -0.2328904 -0.17900428 -0.08601234 0.0098125255 -0.22960775
0.0737073 -0.19732738 -0.24538523 -0.09118364 0.05489356 -0.046395212 0.03524992 -0.14730078
-0.059375856 -0.13849534 -0.018495765 -0.05050027 0.0510829 0.0508502 -0.22322066 -0.25929996
-0.19204961 0.08993275 0.018329829 -0.06282426 -0.17854486 -0.1786218 -0.0995662 -0.16995403
-0.06823749 0.17628746 -0.06423744 -0.057841785 -0.096316576 0.14892717 0.14013563 -0.033419393
-0.08335416 -0.006828777 -0.07628521 0.20431426 -0.14363791 -0.07383822 -0.13204962 0.06064714
-0.13898416 -0.15187024 0.09664627 0.113468796 -0.03156968 0.09774733 -0.015868656 -0.0874814
-0.19531585 -0.19307797 -0.15535203 0.09238122 0.1768662 -0.06446575 0.10472748 -0.044638798
-0.21432586 -0.17448936 0.19109942 0.087601446 0.10741638 -0.07470057 -0.2193531 -0.16850334
-0.18587527 0.035868704 0.0449463 0.08881494 -0.14246099 -0.033024862 -0.13136432 0.08523138
0.103332266 0.07965935 -0.0066042664 -0.022275256 -0.026009299 0.15360624 0.24164705 0.13837336
-0.13229412 0.029757233 0.14408807 -0.009396696 0.085745536 -0.03639794 -0.1695934 0.14676246
0.07233764 -0.17060953 -0.16405594 0.03753733 0.25958335 -0.17350274 -0.104271494 -0.15553428
0.110587224 0.035481717 0.22767006 -0.11149753 -0.17888767 -0.027413335 0.060479503 -0.2154393
-0.23614277 -0.032308128 0.019054066 -0.11476875 0.0318324 -0.061339583 0.07921162 -0.0250545
-0.20921923 0.030942092 0.12743983 -0.05288502 0.046443507 -0.13157034 -0.20851108 -0.07744286
-0.103194475 -0.067508236 -0.13998158 0.078464314 0.09545702 0.029756483 0.111354224 0.26098302
0.08195467 -0.2022229 -0.23561893 -0.19100368 -0.01866911 0.19936177 -0.07119194 0.25920802
0.06160196 -0.117767714 -0.23136637 -0.104312405 0.035979632 0.14085601 0.147612 -0.07277239
-0.10708372 -0.1711811 0.02200848 -0.19036262 0.0573986 -0.021832211 0.12092968 -0.14408584
-0.12215614 0.078476086 -0.15297595 -0.04544041 -0.15801433 -0.060813475 0.034632474 0.09970361
-0.021085361 -0.20820212 -0.049879417 -0.07790937 0.004222942 0.12497561 0.2624903 0.117999114
-0.1510991 0.24201925 0.047588024 0.106029056 0.15778446 0.029851815 -0.2007953 -0.23847793
0.039706532 0.12454576 -0.095908515 0.08575136 -0.011140931 -0.06417707 -0.21331097 0.2188719
-0.17809772 -0.158515 -0.023504518 -0.21311703 0.12777363 -0.022529013 0.06923845 -0.16312729
-0.17185071 0.022731792 -0.17469482 -0.18177377 0.09941675 0.20084235 0.120707534 -0.007766678
-0.054864693 -0.22588629 0.12143261 0.14852437 -0.0003182155 -0.25011587 0.17112745 0.14483373
0.12054933 0.13920371 -0.11111685 -0.1378633 -0.13015977 -0.1728945 -0.11352883 -0.027443605
-0.2179238 0.13958286 0.054918088 -0.036665156 -0.13367982 0.19007733 0.08805557 0.1026241
-0.111998506 -0.19416732 0.049814966 -0.048618432 -0.22798315 -0.1619719 0.12349587 -0.083454855
0.02801501 0.085239045 -0.1861882 -0.018013913 0.034979004 -0.1546986 -0.13968238 -0.17659149

arith.constant1 f4 [37]
00000000: 7b85 1140 3e5e 1540 2e0b f5be e93a 0940
00000010: 2c7b c03f 94d6 b0ba 4845 df3e 08d9 e33f
00000020: 170f 1c40 d99a 1040 a3fc 853f cec7 82bf
00000030: 557c 0940 1fb0 84be e6ed acbe c4a3 df3f
00000040: 649a c0be 37f5 9d3f b30a 5b3f eefc 833f
00000050: 775f 893f b367 69bf 0047 e4be 0d19 183f
00000060: d1d5 c9be 5236 8abf ee72 dd3e a033 b6be
00000070: 6d0d be3f e70b be3e 339a da3f 55f9 0f40
00000080: 43da 16be bf13 0340 aed5 e63f 23dd 733f
00000090: 7ef5 ea3e
2.273772 2.333877 -0.47860092 2.1442206 1.5037589 -0.0013491684 0.43607545 1.7800608
2.438421 2.2594512 1.0467724 -1.0217226 2.1482136 -0.2591562 -0.33775252 1.7471852
-0.3761779 1.2340459 0.855632 1.0311563 1.0732259 -0.9117386 -0.4458542 0.59413224
-0.3942094 -1.0797827 0.43251747 -0.35586262 1.4847847 0.37118456 1.7078308 2.249593
-0.14731698 2.0480802 1.803396 0.952593 0.4589042

arith.constant2 f4 [128, 256]
00000000: 0beb 1a3e d184 ccbd 0870 cdbb b220 ae3d
00000010: 0ff7 61be fcc4 0d3e 22dc 32bd b308 a9bc
00000020: 4e5b 8a3d acfd 213d ee10 c33d dac6 d6bd
00000030: 3169 1f3e eeb1 11be be42 463e e2ef a3bd
00000040: 1c08 d4bd 2381 c63d e07e 263e 7b6b dcbd
00000050: 3703 cebd 6d8a 37be 9a10 9bbc 9c40 c3bd
00000060: de9c cdbd 901a 36be 5970 043d 8b25 3c3b
00000070: 25f3 11bd 24b8 50be 1d4d 0abe 0b9f 183d
00000080: b7d8 9abd 12f3 fa3d 8687 d0bd 4511 343e
00000090: a287 c93d 9f7d c3bd 64b2 303e 93dd c4bd
000000a0: 140e 56be 35b9 81bb 8375 8f3e 4227 e73d
000000b0: 26d7 233e 2a89 aa3d e6c9 c63b 4713 dcbb
000000c0: 353a 273b b06d 763d ccbf 43ba a928 853d
000000d0: d2d8 1c3b 9945 423e 15d6 0d3e b414 e3bc
000000e0: 9b38 503e b396 35bd 9911 8dbd b91c a2bc
000000f0: 49dc 243e 497e 4c3d d066 103e b158 52bd
00000100: b4b8 a3bd 19ec c4bd 8e91 af3c 781e adbc
00000110: 7d83 493d c2f7 993d 7640 61be b0fe a33d
00000120: 00ca 483e 8ace 2cbe 6eab f33d 1e9d b1bc
00000130: fe5f 043d 03b7 2abe bc98 20be a448 293e
00000140: 25a3 c33b 905d 2e3e 558c d63d 1579 d0bd
00000150: 0503 563b 68a0 d13d 636c 7d3e 6304 3a3c
00000160: ad2b a33d e9f3 98bd 4b1a 06be 82f4 04be
00000170: 79c9 5bbd 44d8 023d ad29 c63d 6a70 dabd
00000180: 8dff 90bc a2db 19be 47f3 2c3d 0d83 8dbb
00000190: 3005 573d 1f55 203e 9ea6 63bb fdae 87bd
000001a0: 8140 af3d 0b8b 833d 2871 34be f245 9b3c
000001b0: bec1 9cbd 5f4a a6bb de24 a8bd 62a2 083e
000001c0: 0180 8e3d f2b6 41be 4765 edbd 9804 6c3c
000001d0: c19a 923d 8082 1f3e 2864 ba3c 2feb 48be
000001e0: 4ee1 823c c6c5 ecbd a6f6 e5bd 7865 0b3e
000001f0: 69ae b2bc 6b8e 38be 6faa f53d 0843 6e3d
00000200: a0ec 56bc 45ad 983d 9ac2 71bd e1ef 80bd
00000210: e283 16be 8194 8ebc 5b64 89bd 50cd 0bbe
00000220: 8872 d43d 1437 9f3c 52b3 5ebd 0513 33ba
00000230: 76bd 9ebd 42d3 743d afe4 12be 08f7 c2bd
00000240: 3882 833d d74d c9bd 98e8 53be 08cf 19bd
00000250: 186c 293d 7ac9 b6bd 2f01 bc3d 7550 a5bd
00000260: 46d0 3dbd e0b5 d03c 8e2a 803d cb5f 06be
00000270: ea93 c43d c6f4 353e 8691 a33d 7b12 3bbe
00000280: d9ba 0fbe f767 a93d 2b3b 1f3e ead6 af3d
00000290: caf0 043e a35b fdbd 880c 213d 8a50 a2bd
000002a0: 4277 3b3e 1166 973d 74f1 5abe e4e2 1dbe
000002b0: 7037 f63d 7ccf f43c 57be c83c 8094 1d3d
000002c0: 7726 48be d10a a63d c9d1 edbc c272 09be
000002d0: 5fa2 2c3e 235f 233e 5cce 41bd f0ec c53d
000002e0: e980 33bd 62b0 c2bd 957a ee3d 1105 0cbe
000002f0: 5ac2 ccbd 3f22 353e c9d1 6dbd a1c5 323c
00000300: 589d 383c b708 de3d 4ba7 e0bd 20d0 12be
00000310: bda8 6abd 9149 08bd 4b03 4b3d f944 90bd
00000320: b333 c7bd 4545 09be a040 273c 9c2a bdbd
00000330: b9fc 32bd 3b77 f73d 22ba 34be 7c53 0abe
00000340: 468d 45be 2969 163e f254 bd3d 4539 50be
00000350: 784b d5bd 6edd eabd 07eb a03d 456a e83d
00000360: b155 43bc 5be0 ff3d ac81 09bd 1fbf f8bd
00000370: 36db ab3d 27f2 263e 310d 9c3d 2d58 4e3e
00000380: 445f 07be c5ec 6d3d 5040 5c3d f760 a83c
00000390: 10dc dc3d f186 253d c45d 96bd c45a e7bc
000003a0: 787c 7c3d 7eba 813b 4206 5bbb 97f8 1ebe
000003b0: 8357 183e aba7 3dbe 9465 57be 59b5 17be
000003c0: 8f77 dc3a bfee c5bc 1521 c73d e63a f13d
000003d0: b258 073e 28a0 debc b6f9 c6bd cf37 033c
000003e0: 907b d13d f749 f73d 51a6 9f3c e5f0 b6bd
000003f0: a1a0 c93d e0b2 163e c5d2 17be 0497 513d
0.15128724 -0.0998627 -0.0062694587 0.0850233 -0.22066902 0.13844675 -0.043666966 -0.02063403
0.06755696 0.03954856 0.095247135 -0.10487147 0.15567471 -0.14228031 0.19361398 -0.080047384
-0.10353109 0.096925996 0.16259336 -0.10762688 -0.10059207 -0.17923899 -0.018928815 -0.09533808
-0.10039686 -0.1778357 0.032333706 0.00287089 -0.03563227 -0.20382744 -0.13505979 0.03726105
-0.07560866 0.12253393 -0.10182099 0.17584713 0.09840323 -0.09545445 0.1725555 -0.096125744
-0.20903808 -0.003958846 0.28019342 0.11286785 0.16000041 0.08326943 0.0060665486 -0.006716165
0.0025516872 0.0601632 -0.00074672396 0.06501896 0.0023932946 0.18971862 0.13851197 -0.027719833
0.20334093 -0.04433317 -0.06888122 -0.019789087 0.16099657 0.049925122 0.1410172 -0.051354114
-0.07994214 -0.096153446 0.02143171 -0.021132693 0.049197663 0.07517959 -0.21997246 0.08007562
0.19608307 -0.16875663 0.11897932 -0.021681365 0.032318108 -0.16671376 -0.15683264 0.16531616
0.005970376 0.17027879 0.10475985 -0.101793446 0.0032655608 0.10235673 0.24748378 0.011353585
0.07967315 -0.07468397 -0.13095967 -0.12983897 -0.053658936 0.03194453 0.09675918 -0.106659725
-0.017699981 -0.1502519 0.042224195 -0.004318601 0.05249518 0.15657471 -0.0034736763 -0.06625173
0.08557225 0.06423005 -0.1762129 0.018954251 -0.07654141 -0.0050747837 -0.08210157 0.13343194
0.069580086 -0.18917444 -0.11591583 0.014405392 0.07158423 0.15577126 0.022752836 -0.19620965
0.015976574 -0.1156116 -0.11228685 0.13612926 -0.02181168 -0.18023078 0.11995398 0.058169395
-0.013117939 0.074549235 -0.059023477 -0.06295753 -0.14698747 -0.017404797 -0.067085944 -0.13652539
0.103734076 0.019435443 -0.054370232 -0.0006831142 -0.077509806 0.059771784 -0.14345048 -0.09519774
0.06421322 -0.098293 -0.20694196 -0.037550956 0.04136285 -0.08925147 0.09179913 -0.080719866
-0.046341203 0.02547735 0.06258117 -0.1312248 0.09598525 0.17769155 0.07986741 -0.18268768
-0.1403612 0.08271783 0.15549915 0.085859135 0.12982479 -0.12370994 0.03931859 -0.07925518
0.18307212 0.073925145 -0.2138117 -0.15418583 0.120222926 0.029884093 0.024504824 0.0384717
-0.19545923 0.08107532 -0.029030697 -0.13422683 0.16858815 0.1595426 -0.04731594 0.09664333
-0.04382411 -0.095062986 0.116444744 -0.13673808 -0.09998007 0.17688845 -0.058061395 0.010911376
0.011267982 0.10841506 -0.109694086 -0.14337206 -0.057289828 -0.033273283 0.049563687 -0.070444055
-0.09726658 -0.1340533 0.010208279 -0.09236643 -0.043698046 0.12083288 -0.17649129 -0.1350841
-0.19292173 0.14688553 0.09244718 -0.20334347 -0.10414785 -0.114680156 0.07857328 0.11348394
-0.011922286 0.12493964 -0.03357093 -0.121458285 0.083914205 0.16303311 0.076197036 0.20150824
-0.13219935 0.05808713 0.05377227 0.020554049 0.10784161 0.040411893 -0.07342103 -0.028241523
0.06164214 0.003958999 -0.0033420478 -0.15524517 0.14877133 -0.18520992 -0.21034843 -0.14815272
0.0016820299 -0.024161695 0.09723107 0.11778812 0.13217428 -0.027175978 -0.09715597 0.008008911
0.10228646 0.120746545 0.019488486 -0.08932666 0.09845091 0.14716673 -0.14826496 0.05116941

arith.constant3 f4 [128]
00000000: 1709 9c3e 6e05 1a3f d9e7 b53f 19b6 80bf
00000010: 66d1 7c3f a8d7 d3bd 227b 603f 3abc adbe
00000020: 9009 143e 08dd ef3f ea72 9dbe 41d5 8cbe
00000030: b317 8e3f 8bf5 d93b b649 99be 2f61 f53f
00000040: c1fe 2bbf bc62 b5be ce75 333f 3103 d43f
00000050: 20ab d13e a57c 913f 81e0 bd3f 2633 bd3f
00000060: cbd2 8abd 5d3a 223f d2bb 933c fba5 033f
00000070: d18c 8ebe 94ee d03e fb57 593e 3a09 a63f
00000080: edcb b23f 1f9a ab3f 609b 493f c0b6 123e
00000090: daad 87be 9ae7 b8bf 8385 09bd 2c5e c5bd
000000a0: 343f 66bf 906f 8d3f d09a babf c069 1f40
000000b0: 7550 0f3d 4274 c23f d353 993f 72cd 303f
000000c0: a54a 8c3e 00b0 99bf 0c55 8f3d e15c cf3f
000000d0: ba09 663f eae0 50bf e3e4 a9bf 82e6 bbbf
000000e0: 4854 37bf 07d5 6c3f 6f91 c73f 2ad0 3d3e
000000f0: 6ee3 dd3d 0869 4bbf fd7b 5a3f cf2d 123f
00000100: b188 98bf 10e0 403f 2a5c 383e ebb9 d4bf
00000110: b363 cb3e 3dca e93e 947a c93f a8bb 673f
00000120: 256f c63d 9d67 39bf 27a0 83bb 8590 65bf
00000130: 81f5 e8bf 8795 813e 01ce 7a3d 7c37 37bf
00000140: 0d1d 37bf 98a0 ea3e 651b 0340 9b98 2f3f
00000150: 42f9 513f 39d2 1c3e e60e 9e3f 3736 0d3f
00000160: 9c99 3dbf ad2c 903e 199f 843f cf25 323f
00000170: a89f ac3f f359 0240 065b e83e ae20 be3f
00000180: 222e d03e dc88 f63e 686b acbf 2f63 23bf
00000190: 01c2 003e aa1f 423f ba6a a53e 7dd1 c73f
000001a0: 4100 35bf 1afd 6dbf 576e 143f 179b 74bd
000001b0: 69b3 f13f 4a22 533f 1920 713f e7a0 db3d
000001c0: 7b8b 903f 38d0 24bf bae7 0240 f3c7 953f
000001d0: c0c1 263f a2bf b53e e260 1540 b57e a43f
000001e0: ce7d ad3f 20e9 913f a82e 05bf 09f9 95be
000001f0: 3cf5 613e 1ada 503f aa1e 473e 0c50 c23f
0.30475685 0.60164535 1.4211379 -1.0055572 0.98757017 -0.103438675 0.87687886 -0.33932668
0.14456773 1.8739328 -0.30751735 -0.2750645 1.1100982 0.0066515855 -0.2993905 1.9170283
-0.671856 -0.3542689 0.7010163 1.6563474 0.4095087 1.1366163 1.4834138 1.4781234
-0.06778487 0.63370305 0.018033896 0.5142514 -0.2784181 0.4080702 0.21224968 1.2971566
1.3968483 1.3406409 0.7875271 0.14327526 -0.26499826 -1.4445679 -0.033574592 -0.096371025
-0.8994019 1.1049671 -1.4578495 2.4908295 0.03498884 1.5191729 1.1978706 0.69063485
0.274007 -1.2006836 0.06998643 1.6200219 0.8985859 -0.8159319 -1.3272976 -1.467972
-0.7161298 0.92512554 1.5591258 0.1853644 0.108343944 -0.7945714 0.8534544 0.5710115
-1.1916715 0.7534189 0.18003908 -1.6619238 0.39724502 0.45662108 1.5740533 0.90520716
0.09689168 -0.72423726 -0.0040168944 -0.89673644 -1.8199922 0.25309393 0.061231617 -0.7156904
-0.715287 0.45825648 2.048547 0.6859223 0.8202096 0.15314569 1.2348297 0.5516085
-0.74062514 0.28159085 1.0361053 0.6958894 1.3486223 2.03674 0.45381945 1.4853723
0.40660197 0.4815129 -1.3470278 -0.6382322 0.12574007 0.75829566 0.32307988 1.5610806
-0.7070351 -0.9296433 0.57980865 -0.059718218 1.8882877 0.82474196 0.941896 0.10724049
1.1292566 -0.64380217 2.0453935 1.1701645 0.6513939 0.35497767 2.3340383 1.2851168
1.3554018 1.1399269 -0.52024317 -0.2929156 0.22066206 0.81582797 0.19445291 1.5180678

arith.constant4 f4 [256, 512]
00000000: a971 d8be 354f 28be 11a3 263f bcea f43e
00000010: a904 773e 970a e4bd 7748 803e 67e7 20bf
00000020: c72d ab3c 8450 a6bf 213b 283c 1cdd 0f3e
00000030: 7bc1 8f3f da1e 8b3f 37f4 2abf 2ef7 1e3f
00000040: 33d0 45bf f2a4 f93e 56b6 b53d 6fa9 afbf
00000050: 59f5 dabe 2744 333f e79a 41bf 89cb b93f
00000060: bc0e f7be aa2e 793f a146 ae3e 728c 723f
00000070: 8e9d d73e 7854 45bd acea d23d 0b5c 713f
00000080: 4018 873f 9566 3a3f 0fa5 013f e016 91be
00000090: 4cb7 25bf 467d 0dbf 0694 263f 9371 3bbf
000000a0: 25a0 043f a655 593f 3b58 753e 0e77 8b3f
000000b0: 82be 16bf 10ea 1bbf 2acd afbf 5abd 093f
000000c0: 8dac 5ebf ca53 bdbe aed1 6c3f ac76 01bf
000000d0: a0b0 3abf e0fa a8bf ad90 7b3e 4763 653f
000000e0: bc4f 203f 81f2 8dbf 74f7 213f e39d adbc
000000f0: 3081 213f 7da2 a33f ef88 923f 69ec 1e3f
00000100: fbf4 75bf 6840 76bf f28b b63d 0de3 653f
00000110: 9df7 00bf 7ee1 113e a533 3cbf b063 a4bf
00000120: 5e18 39bf 0627 613f dee4 903e 7d39 cebf
00000130: b9cb c5be 3cc4 633f e270 233f 974e ff3e
00000140: b73f 31bf 7a2d 973e b83d 863f 2291 833f
00000150: 8e5e 70bf f562 5b3d 4ca9 f0be fe0e c63a
00000160: a590 f9be 89b7 60bf bc3d 8b3e 8a94 2bbf
00000170: 42b1 033f c3c1 303f 44d4 703f 7462 cc3e
00000180: a141 c23d cf83 763e ffbd 9d3f fd59 59bf
00000190: e02d 333f 8a8a 83bc 07cc bcbe 4558 aa3e
000001a0: 25f4 35bf 8598 0cbf 8ece 163e 01a7 413f
000001b0: a277 7b3f 80b2 963f bb71 e2be 2d62 a33f
000001c0: 0b3d ba3f db88 8f3f 99de 983f 18ad 283f
000001d0: 1f85 42bd 0ee3 7ebe 5526 3cbf adbb 283e
000001e0: bdf7 0b3f 4c3f a43f 88ca cdbf 70f1 d1bf
000001f0: e7f8 673f dd10 a63e 05c7 bbbf a09b 773f
00000200: e8a7 aa3d 7d42 1cbf 89d0 8ebf aeea 793f
00000210: 34cc 9ebe b5b0 cabf e3d4 46ba 5c1e 813f
00000220: 273e 0f3f 082d 003f fda4 8a3e 32d8 ce3e
00000230: 9a5d 343f 0b94 433f fcce 0e3f 2f0e cd3e
00000240: 5ae7 29bf 1fce 823f 97ad 383f 061e e13e
00000250: d4fb 6a3f ebbd f83e bd97 3c3f f1f3 e53e
00000260: 3be9 84bd 7335 4f3f b651 09bf 67a4 693f
00000270: ceb9 1ebe 4ccf 1dbf 8579 90bf a06c 183e
00000280: 18db 833d 6338 e9be 4c48 373f 0c5d c33e
00000290: 3902 18bf 9d40 be3f 830c 19be fccf 573f
000002a0: 8fbc 8a3d fae7 733f 2983 0c3f 2fbd 0f3f
000002b0: 981b 703f e8fb 933f ab85 313f cb84 183f
000002c0: 618c 9ebf 0167 8bbd be0a 33bf f3af 13bf
000002d0: 8cb4 c2bc f8f0 693e 72ce 27bf 1f88 1e3e
000002e0: 6c2b 8d3f 9cd7 0abe 968f 4f3f d43e 5abf
000002f0: 8ba7 91bd fcc1 60bf 9186 b23f 5cfe 6bbe
00000300: fd8e 31bf 7e73 61be 91d7 8cbd 5196 61be
00000310: 8d68 273e 8a96 863f 440e 1d3f f10a c9be
00000320: d563 6bbf 5879 9fbf 462c 76bf 434c 83bf
00000330: e03f 27bc 21aa 64bf 9ba9 373f db6b 9f3f
00000340: 7601 f03e c41e d4be 4f33 423d d562 61bf
00000350: 9216 5e3f e808 533d 9915 d03e a473 163f
00000360: d07a 1bbe 43a1 ff3e c1cd 83bd 385a 44be
00000370: 6c19 713f c27e b53f 945e 7a3f f7bc 15bf
00000380: 4e7d fdbe 7bea fcbd bfbe 6bbf f452 243f
00000390: f3e9 75bf fa04 113f 73f8 d13d 019d 7c3f
000003a0: cb13 1a3f e040 83bf c943 9e3f 0829 1dbf
000003b0: ff75 173f 86fb 8b3d f9e8 a03f 2292 b93e
000003c0: 7382 a73e 6f09 11bf 7aa3 8c3f 6080 5d3e
000003d0: a258 463d 7da1 8f3f c0d1 34bf 5ced fbbc
000003e0: 9351 98bf 5b39 ab3d 0fcb 873f 26c9 97bf
000003f0: 4bf2 e8be 8333 943e 7384 443f e795 3b3f
-0.42274216 -0.16436465 0.6509257 0.47835338 0.24122871 -0.11134832 0.25055286 -0.6285309
0.020895852 -1.2993321 0.010268004 0.1404919 1.123092 1.086879 -0.6677889 0.62095916
-0.7727081 0.48758656 0.088726684 -1.3723582 -0.4276531 0.7002587 -0.7562699 1.4515239
-0.4825343 0.9733683 0.3403826 0.9474555 0.42112392 -0.04817626 0.10298666 0.9428107
1.0554276 0.7281278 0.50642484 -0.28337765 -0.64732814 -0.5526928 0.65069616 -0.73220176
0.5180686 0.84896314 0.23959439 1.0895708 -0.5888444 -0.60904026 -1.3734486 0.5380455
-0.8698204 -0.36977988 0.92507446 -0.50571704 -0.7292576 -1.3201561 0.24566908 0.8960461
0.62621665 -1.1089631 0.6326821 -0.02119345 0.6308775 1.2783962 1.1448039 0.62079483
-0.96076936 -0.96192026 0.08913411 0.89799577 -0.5037783 0.14246175 -0.73516303 -1.2842922
-0.72302806 0.8795017 0.28299612 -1.6111294 -0.3863199 0.88971305 0.6384412 0.49864647
-0.69237846 0.29526883 1.0487585 1.0278666 -0.9389428 0.05356117 -0.47004163 0.0015110669
-0.48743168 -0.8778005 0.27195537 -0.6702353 0.5144235 0.69045657 0.9407389 0.39918864
0.09485174 0.24073718 1.2323607 -0.84902936 0.69991875 -0.016057272 -0.3687441 0.3327047
-0.7107566 -0.54920226 0.14727232 0.7564545 0.9822942 1.1773224 -0.44227394 1.2764336
1.4549879 1.121364 1.1942931 0.6588912 -0.047490235 -0.24891302 -0.7349599 0.16477843
0.54674894 1.2831817 -1.6077433 -1.6401806 0.9061417 0.3243474 -1.4670111 0.9672184
0.08332807 -0.61038953 -1.115739 0.9762372 -0.3101517 -1.5835177 -0.0007584823 1.008739
0.5595421 0.5006871 0.27079 0.4039932 0.70455325 0.7639777 0.55784583 0.40049884
-0.6636864 1.0219153 0.7213988 0.4396822 0.9179051 0.48582396 0.73669034 0.44912675
-0.06489798 0.8094093 -0.53640306 0.91266483 -0.15500566 -0.61644435 -1.1287085 0.14885187
0.06438273 -0.45550832 0.7159469 0.38156927 -0.5937839 1.4863468 -0.14946179 0.84301734
0.06774246 0.95275843 0.54887635 0.56148046 0.93792105 1.1561251 0.69344586 0.59577626
-1.238659 -0.06806756 -0.69938266 -0.5769035 -0.023767732 0.22845829 -0.65549386 0.15481614
1.1028876 -0.13558811 0.8107847 -0.8525212 -0.071120344 -0.87795997 1.3947316 -0.23046249
-0.6935881 -0.22016713 -0.068770535 -0.22029997 0.16348477 1.0514691 0.6134989 -0.3926616
-0.91949207 -1.2458906 -0.96161306 -1.0257648 -0.0102081 -0.89322096 0.7174317 1.245479
0.46876115 -0.41429722 0.047412213 -0.8804143 0.8675319 0.051522166 0.40641478 0.58770204
-0.15183568 0.4992772 -0.06435729 -0.1917504 0.94179416 1.4179308 0.97800565 -0.5849146
-0.49509662 -0.12349411 -0.9208793 0.64189076 -0.96060103 0.5664822 0.10252466 0.9867707
0.6018645 -1.0254173 1.2364436 -0.61390734 0.5916442 0.06835084 1.2571098 0.36244303
0.32716712 -0.5665502 1.0987389 0.21631002 0.04842437 1.1221157 -0.70632553 -0.03075283
-1.1899894 0.08360549 1.0608844 -1.1858261 -0.45497355 0.2894555 0.767646 0.7327561

arith.constant5 f4 [256]
00000000: 752b 97c0 5522 4c3f 873b 7640 317d fe3f
00000010: 6d7b 01c0 72cd c2c0 a404 b73f 70a6 cdbe
00000020: 2ca5 8cc0 93bd d940 295d 99be 37a4 76c0
00000030: e653 5dbf 7dcd 46bd 9fc8 27bf f611 6040
00000040: 7419 a6c0 1409 e53f c3f9 443e 73a2 2ac0
00000050: a8e3 18c0 08d8 b5c0 0341 15c0 e4ef 8c3f
00000060: a1bd e9bf 92aa 65c0 2304 bd3e 0341 ba40
00000070: fc55 f53f 3db6 0c40 2516 25c0 71c1 0dc1
00000080: 0cdb 9ec0 d6d3 a4c0 71d1 04bf 353f 7cbe
00000090: 7aa6 503e d82f 0b40 290e 3b3f e071 1cc0
000000a0: 54a7 ba40 45ab ee3f e24a ee3f d331 cb3f
000000b0: 7aa4 c8bf c02b d3bf 5a64 4740 d605 4bbf
000000c0: efe2 9b40 f5cd 983e 5f8d 4040 7062 2640
000000d0: f267 aa40 c606 1a40 414e 12bf 9d18 1dc0
000000e0: 6316 26c0 a147 8840 6568 8440 24c0 8540
000000f0: 286e 6cc0 8991 47c0 b736 d73f acf7 87c0
00000100: ea22 52c0 694b 10c0 7280 bf40 715a 6f3e
00000110: d4c8 79c0 d82c 3cbf 3144 cabf 6c69 0640
00000120: e345 16c0 249f 00c1 6e1d 6ec0 6b51 79c0
00000130: 77e5 b8bf c7fd 76bf c812 59c0 6745 263f
00000140: 0b55 8140 41f8 c73f ca09 93bf a3f6 e3be
00000150: df70 e4bd e324 97bf f4c5 22be 9775 79c0
00000160: 817f 143f 18de b4bf e4e9 4340 3c2d 16bf
00000170: ded1 c83f 6476 d53f 46fe 8dbe 4050 58c0
00000180: f7b0 bc3f e88e 1d40 647d 1a3d 0fb7 d23f
00000190: bfca 633f 6e5e 33bf e0d8 a93c 46b1 1640
000001a0: 8309 2ac0 96e6 9abd c022 29bf 771d 27c0
000001b0: cae5 8f3f 29d9 d140 9a0c bbc0 37d0 8ebf
000001c0: 40c6 0ebf 415d 99c0 c70f ec3f 1e78 723e
000001d0: 8576 99c0 6710 1bbf 0346 8fc0 9117 a93d
000001e0: 4675 b93f 56a2 d3c0 8426 c3bf fce6 2c40
000001f0: 10c2 a7bf 0adc d73f 747a 64c0 72a8 2b40
00000200: 0958 dac0 e18d 9d40 9cf0 93c0 77d6 d7be
00000210: da9c abc0 afe1 033e c98a 8840 871c 3f40
00000220: bf8e 13bf de2f a63e f509 13c0 dce9 86c0
00000230: 345d 8ebe 8cec e2bf 8eb1 20c0 e7c8 dbbf
00000240: 13ae 1d40 6329 9c40 950d 27bf d811 4440
00000250: dc26 e5be 339d 82c0 fbce 7640 5b16 9140
00000260: b0e4 e9bf 9da7 3cc0 7247 c140 cebb d4bf
00000270: 1043 af40 50e3 d6be 9fa7 8140 332e b13f
00000280: 77fe d23f d5a2 4bbf 5a6b fac0 3a48 23c0
00000290: 0f04 0640 aa17 a340 bb3c b83f 2f2b 98bf
000002a0: a65d 5a40 abfd 8440 423a 9f3e 7f14 35bf
000002b0: 7dc5 3dc0 7ae2 da3f 8ad1 9240 9ef8 f3c0
000002c0: 4e95 39c0 472a 0f40 d668 45bf ffce 0ac0
000002d0: 9357 c73e 69e5 903d bf73 e9c0 b34a 80c0
000002e0: 1dc2 eec0 23e8 b540 c156 e33d 4097 843f
000002f0: a698 61c0 2732 19c0 845a 37c0 a1a7 ee3f
00000300: 41e3 93bf 0c7a f83f 9cb3 8040 f78d 75c0
00000310: d65f 3140 f78f 883f 06bb 12c0 30b6 03bf
00000320: 97f5 ba3f ea59 64be 3958 0bc0 5a8f abc0
00000330: ccdc 2dc0 c4d1 1f40 3eb6 1c3f e295 c0c0
00000340: 57d1 7040 fb86 64c0 1a85 ac40 21c6 3440
00000350: a078 a43f 9a85 af40 2abf f33f 07e0 3c40
00000360: 445a a0c0 a50a 46bd 9476 3abf f1e1 843f
00000370: 9126 8ebf a0b6 bdbf c64d 663e c6f3 5bc0
00000380: b6ca 4740 b3fc 9bbe cfdf 4440 b508 813f
00000390: a701 0d40 5bb4 54bf bb0f 7ec0 a416 8f3e
000003a0: 2716 efbe 45ee 5040 6267 3cc0 2818 4dc0
000003b0: cde4 0dc0 d340 813e ac20 893f d427 fbbf
000003c0: c289 bb3f a9fd ea40 bcd1 d73f c811 9540
000003d0: 5a2b 0d40 0a2c 1f3f 2956 6ec0 ea27 abc0
000003e0: 39d7 5640 3266 c9c0 b8c3 cbbf 7210 1bc0
000003f0: a9e4 32c0 6392 393f ebda 82c0 48da 353f
-4.724055 0.79739887 3.8473833 1.9881955 -2.0231583 -6.087579 1.4298291 -0.40166044
-4.3951626 6.8043914 -0.29953888 -3.8537729 -0.86456144 -0.048535813 -0.655405 3.5010962
-5.190607 1.7893395 0.19235902 -2.666165 -2.388895 -5.682621 -2.332093 1.1010709
-1.8260995 -3.5885358 0.3691722 5.820436 1.9166865 2.198623 -2.5794766 -8.859727
-4.964239 -5.150859 -0.5188208 -0.24633487 0.20376006 2.1747952 0.7306848 -2.4444504
5.832926 1.8646017 1.8616602 1.587458 -1.5675194 -1.6497726 3.1155 -0.7930578
4.871452 0.29844633 3.0086286 2.5997581 5.3251886 2.4066634 -0.57150656 -2.4546273
-2.5951164 4.258744 4.1377435 4.1797047 -3.6942234 -3.1182578 1.6813573 -4.2489834
-3.283381 -2.2546027 5.9844294 0.23374344 -3.9028826 -0.73505926 -1.580206 2.1001844
-2.3480155 -8.038853 -3.7205462 -3.8955944 -1.4445027 -0.96480983 -3.3917713 0.6494965
4.041631 1.5622636 -1.1487362 -0.44524106 -0.11154341 -1.1808132 -0.15895826 -3.897802
0.58007056 -1.4130278 3.0611506 -0.5866277 1.5689046 1.6676755 -0.27733058 -3.379898
1.4741505 2.4618473 0.037717238 1.6462115 0.8898124 -0.70065963 0.020733297 2.35457
-2.6568305 -0.07563512 -0.6606865 -2.6111734 1.1242001 6.557759 -5.8452883 -1.1157292
-0.55771255 -4.7926335 1.8442315 0.23678634 -4.7957177 -0.60571903 -4.4772964 0.08256448
1.4488914 -6.6135664 -1.5246129 2.7015982 -1.3106098 1.6864026 -3.569974 2.682156
-6.8232465 4.923569 -4.6231213 -0.4215581 -5.362897 0.1287906 4.2669415 2.9861162
-0.5763969 0.32458395 -2.2974827 -4.2160473 -0.27805483 -1.7728438 -2.510837 -1.7170686
2.4637496 4.880052 -0.652551 3.063589 -0.4475621 -4.0816894 3.856383 4.533979
-1.8272915 -2.9477303 6.0399714 -1.6619813 5.4769363 -0.419703 4.0517116 1.3842224
1.6483907 -0.79545337 -7.8256044 -2.5512834 2.0939977 5.0966387 1.4393533 -1.1888179
3.4119658 4.1559653 0.31099135 -0.707344 -2.9651787 1.7100365 4.5880785 -7.624099
-2.8997378 2.2369554 -0.7711309 -2.168884 0.38934 0.070750065 -7.295379 -4.0091186
-7.4611955 5.684587 0.11100531 1.0358658 -3.524942 -2.393686 -2.8648996 1.8644906
-1.1553727 1.9412246 4.021925 -3.8367898 2.7714744 1.0668935 -2.292665 -0.5144987
1.4606198 -0.22299924 -2.1772597 -5.361249 -2.7166014 2.497178 0.6121558 -6.0182962
3.762777 -3.5707386 5.3912477 2.8245928 1.2849312 5.485059 1.9042714 2.9511735
-5.0110188 -0.048349995 -0.72837186 1.0381452 -1.110552 -1.4821358 0.22490606 -3.4367537
3.1217475 -0.30466232 3.0761602 1.0080782 2.2032259 -0.830877 -3.96971 0.2794696
-0.46696588 3.2645428 -2.94381 -3.2045994 -2.21709 0.2524477 1.0713096 -1.962153
1.4651415 7.3434644 1.6860881 4.6584206 2.205771 0.62176573 -3.7240088 -5.3486223
3.3568861 -6.293725 -1.5919104 -2.4228787 -2.7952063 0.72488993 -4.0892234 0.71036196

arith.constant6 f4 [512]
00000000: 6958 c03c b5d2 fbbb 2a6b 31bc 0000 0000
00000010: 66fa a7bb 0000 0000 0000 0000 3204 1bbc
00000020: 8a66 ee3c 7821 7bbc 825f aa3b 086f 8337
00000030: 90ed 52bb de63 b33a 9c8c 1ebc 4e90 4bbc
00000040: 0000 0000 c978 b63b b4ee 063a 3649 7c3a
00000050: 0000 0000 30b6 61bc ac8d 99ba 947a 9f3c
00000060: de1b 06bd 7445 cdbb 0000 0000 61a0 763b
00000070: 0000 0000 53cf 863c 63b6 a93c e5c3 c23c
00000080: ddb7 8fba 0000 0000 4266 123d 4dc7 5b3c
00000090: 0000 0000 9fbe da3c fd2b d1ba 0000 0000
000000a0: d2c8 c4bb 80d2 07bd 2022 cabc 7ca1 ce3b
000000b0: 2817 b5ba 0000 0000 bd80 8bbc 9d50 cfbb
000000c0: 820a 7cbc 35d2 eebb aa0d 493c d04c 43bb
000000d0: 2040 e13b 0000 0000 181f 46ba 3cc4 c4bb
000000e0: 6b66 ab3c 9846 7fbc bee5 3bbc 1200 9abb
000000f0: d48e ad3c f0f9 febb b880 4bb9 0000 0000
00000100: 2d0b a7bb b0af 12bc a084 f2bc 0000 0000
00000110: aa3a b73b c265 573a 0000 0000 a0c4 bcbb
00000120: 1e01 81bc 3747 45bb 0b19 cc3b 0000 0000
00000130: d76e 273c 0000 0000 ed4d d63c 05d0 85bc
00000140: 8df5 24bc dce2 c0bb 85f3 fdbb 9160 833c
00000150: de55 8d3b 0b6a 08bc e67a 0e3b 0000 0000
00000160: 8ac3 073c 0000 0000 d015 2c3c 0cfb 803b
00000170: 44ea b73b 0e46 0c3b d65b 90bc a1ad a03a
00000180: 17c1 d43b a1c5 c43b 0000 0000 0000 0000
00000190: 0bc8 c4bb b8eb 8ebc 66a0 133c e152 dfbb
000001a0: 0000 0000 27b7 52bc 0000 0000 16bb 17bb
000001b0: 0000 0000 12bf 5cbc 1341 c5ba 39b4 d2bb
000001c0: 0000 0000 0000 0000 174d 0fbc bcbb 4c39
000001d0: 2003 ba3a 708d f43a ea53 9c3b d67c 59b9
000001e0: 268c 04bc 0000 0000 06c6 6ebc 0000 0000
000001f0: a1a5 f4bb f049 d7bb 0000 0000 7ba9 8bbc
00000200: ff9d 153c 0000 0000 a9cc 27bc 0000 0000
00000210: b9d3 4d3a cb87 b7bb b87e 843c 0000 0000
00000220: 91fc 833c 0000 0000 0d20 5dbc 62b2 753c
00000230: 5a0e a6bb abc8 c4bb e258 18bc 826e 413c
00000240: 6581 02bc d01d 07bc 1eef 9eba 5d67 8fbb
00000250: f0d7 c3bb dc92 be3b 35ed 88bb a6f4 6abc
00000260: 0000 0000 c3a5 9c3c 0000 0000 d03e abbc
00000270: 2cec 31ba 72ee a83c 8839 c0bc 7bd0 293b
00000280: eac8 54bc 5fc1 033c 0000 0000 c36d f5bb
00000290: 0000 0000 8256 5dba 2748 cb39 6b78 a5bc
000002a0: 0d35 743c 3181 51bb 8425 26bc 6df0 c2bb
000002b0: 00a9 99ba 6ecb 65bb 6e6f a43b 34b2 d0ba
000002c0: 4e3b abbb 669b e1bc 6f01 8c3c 31ab 933b
000002d0: 3b65 853c 402c 863c 0000 0000 e56f f3bb
000002e0: 8941 7dbb 8330 9fbc 9841 793c b5d4 b4bc
000002f0: 5c4c 08bd a8c2 39bc b288 123d 18e9 d03a
00000300: 1a18 31bc d079 61bb c203 ccbb cd1f dcbb
00000310: 0000 0000 29f2 2cbc 41e4 3bbc 0000 0000
00000320: ee7d 04bc 24e1 c4bc 0000 0000 7eb2 2fbd
00000330: 98c6 5f3c e1ef afbb 6b12 15bc 3af8 94bc
00000340: 157e 32bc 0000 0000 2457 843a 3972 f53c
00000350: 5ca4 9bbc ea90 20b9 0cf3 66bb 0000 0000
00000360: 52d1 d939 f2bd 043c ad6b 51bb b7c3 9cbc
00000370: cd26 173c 0000 0000 2076 babc f84a a5bb
00000380: 0000 0000 0000 0000 6f81 3d3b 0b85 dcbc
00000390: 891e abbb 0000 0000 0000 0000 0000 0000
000003a0: b89d 6b3c 0000 0000 1a14 c93c a3c7 fbbb
000003b0: 0000 0000 6f58 973c 0000 0000 ed47 68ba
000003c0: 5cc7 d3b9 a687 9f3c 7c4d 10bc 0000 0000
000003d0: e6f4 24bb 0dc8 c43b 0000 0000 9158 3cbc
000003e0: 0000 0000 0000 0000 0000 0000 e17c b93c
000003f0: fd0d d6bb 2d88 f0bb 6d06 16bc 0000 0000
0.023479657 -0.0076850303 -0.010828773 0.0 -0.0051262854 0.0 0.0 -0.009461449
0.029101629 -0.015327804 0.0051993737 1.566812e-05 -0.0032185055 0.0013686379 -0.009677079 -0.012424542
0.0 0.005568598 0.0005147264 0.00096239464 0.0 -0.013776347 -0.0011715195 0.01946763
-0.03274142 -0.006264383 0.0 0.0037632214 0.0 0.016456282 0.020716852 0.02377505
-0.001096483 0.0 0.035742052 0.013414216 0.0 0.026702223 -0.0015958544 0.0
-0.006005385 -0.033159733 -0.024674475 0.0063058715 -0.0013816105 0.0 -0.01702916 -0.0063267485
-0.015383365 -0.007288242 0.012271324 -0.0029800422 0.0068740994 0.0 -0.0007557734 -0.0060048383
0.02092286 -0.015580796 -0.011468349 -0.0046997154 0.02118627 -0.0077812597 -0.0001940754 0.0
-0.005097768 -0.00895302 -0.029604256 0.0 0.00559171 0.0008216762 0.0 -0.005760744
-0.015747603 -0.0030102262 0.0062285713 0.0 0.010219297 0.0 0.026160205 -0.016334543
-0.0100683095 -0.0058864187 -0.007749977 0.016037257 0.0043132147 -0.008326064 0.0021740734 0.0
0.008286366 0.0 0.010503247 0.003936177 0.0056126434 0.002140406 -0.017621916 0.0012258777
0.0064927447 0.0060050045 0.0 0.0 -0.0060052923 -0.017446384 0.00901041 -0.0068153
0.0 -0.01286105 0.0 -0.0023152283 0.0 -0.013473289 -0.0015049301 -0.0064301756
0.0 0.0 -0.008746407 0.00019524893 0.0014191605 0.0018657874 0.0047707455 -0.00020741238
-0.008090055 0.0 -0.01457358 0.0 -0.0074660336 -0.0065700933 0.0 -0.017048588
0.0091319075 0.0 -0.010241666 0.0 0.00078516785 -0.0056009046 0.016173705 0.0
0.016111644 0.0 -0.013496411 0.014996143 -0.005067629 -0.006005367 -0.009298535 0.011806132
-0.00796542 -0.008246854 -0.0012125706 -0.0043763355 -0.0059766695 0.005815847 -0.004178668 -0.014340555
0.0 0.01912201 0.0 -0.020903975 -0.00067872065 0.020621512 -0.023464933 0.0025911618
-0.012987355 0.008041709 0.0 -0.0074898913 0.0 -0.00084433716 0.00038772935 -0.020199021
0.014905226 -0.0031967873 -0.01014078 -0.005949071 -0.001172334 -0.003506388 0.0050181663 -0.0015922249
-0.0052255755 -0.02753992 0.017090527 0.0045064916 0.016283622 0.016378522 0.0 -0.0074291104
-0.0038643798 -0.019432312 0.015213393 -0.022074083 -0.033275947 -0.011337914 0.035774894 0.0015938608
-0.010808969 -0.0034404881 -0.006226034 -0.006717658 0.0 -0.010555782 -0.011467994 0.0
-0.008086665 -0.024033137 0.0 -0.042894833 0.013658188 -0.005369172 -0.0090986295 -0.01818477
-0.010894318 0.0 0.0010096771 0.029961692 -0.018999271 -0.00015312774 -0.0035240082 0.0
0.0004154542 0.008101927 -0.003195505 -0.019136293 0.009225559 0.0 -0.022761405 -0.0050443374
0.0 0.0 0.002891626 -0.026918909 -0.005222146 0.0 0.0 0.0
0.014380865 0.0 0.024545718 -0.0076837107 0.0 0.018474786 0.0 -0.00088608154
-0.0004039359 0.019473862 -0.008807536 0.0 -0.0025170385 0.006005293 0.0 -0.011495725
0.0 0.0 0.0 0.022642555 -0.0065324293 -0.007340452 -0.009156805 0.0

sequential_1/dense_1/MatMul f4 [512, 126]
00000000: 5087 86bc 90a9 ba3d 921e 253d e012 4d3d
00000010: 317b ae3d 6016 82bd 9d2c c1bc d310 a13d
00000020: ff54 ea3c f396 b23c b163 583c a42e 17be
00000030: 3d05 c93d 967b 9fbd c366 14be 1dc5 64bc
00000040: 5f7c 8dbc 31be 663d b0e1 a8bd a519 f83c
00000050: 04aa f6bc 5377 93bd 2b6f 863c d1ce b0bd
00000060: 76dc a53c 53c0 97bc de8b e9bd f87f f53c
00000070: 57ad 94bc 3e34 963d 0119 913d 3fc7 d8bd
00000080: 6eb6 133d 462e 23bd 72cf 703d c317 11be
00000090: 0bb8 813d bad9 8ebc 5b70 01be 6888 45bd
000000a0: 0438 01bd 1774 9bbd 805b a43d 004d 3ebd
000000b0: cb14 c33b c4f1 3bbd 2fbf b2bd b429 abbc
000000c0: 160f d7bc ce35 743d 7ec1 86bd 302c 84bd
000000d0: 30a1 73bc 7789 263d b524 9a3d 529a b7bc
000000e0: fc54 05bd ad47 e53b c6da 703d 43ef c7bd
000000f0: 782f b2bd cf18 2b3a 0caa 6cbc f2c8 273c
00000100: 4d93 463c a643 463d f0ed 883d 1eea 89bd
00000110: 265e 28bc 8e0a 8fbd b14f 4f3c a953 dabd
00000120: c42c db3c 464f ba3d 8385 d4bd 099b 75bd
00000130: 77f6 9d3c 5044 d7bd 433a 993d e58d 843c
00000140: 6ff3 7a3d 0606 703d 809d 103d 9b9d 81bc
00000150: 9447 86bd 508d 75bd 66ec 05bd cff9 88bd
00000160: e637 5dbd 9ab3 803d 27a0 4b3c 4247 72bd
00000170: 5e11 ffbc 1c5b 5cbd 2f3e a73d fba8 efbd
00000180: 2055 673d 4259 a5bd 5c94 d4bd 9c5d b5bd
00000190: 5e62 603d d4df aabd f681 84bd 2174 9c3d
000001a0: c775 1ebd ebcb babc d2b9 833d 9cd8 fd3c
000001b0: 4dbf 87bd e1ac c73d dcb6 683c 5325 833d
000001c0: e7f4 a53d 364d b3bd 8dc9 64bd 3840 863d
000001d0: ea32 68bd 43b9 823d 3237 afbd efa6 b6bd
000001e0: 18f7 81bb e614 26bd 04af ccbd 32c7 113d
000001f0: 5e94 493d c080 6b3c 57d5 993c 55dc 08bd
00000200: 769d 78bc 96be c4bc 99cc 33bd a513 1c3d
00000210: c826 f1bb 67b7 b93c a274 1a3c 40a6 45bd
00000220: 9a5a 5a3d 9830 8b3c 6742 de39 e255 56bd
00000230: 4b3d c2bd fa7a f5bc b5d1 0bbd ce77 77bd
00000240: e900 693d b06e b3bd 17e1 5ebd 75cb 933d
00000250: 8034 963d 374b 983d b1eb 833b 1fbb 1a3c
00000260: e01f 963d 6c40 67bc c5ae ca3c 091e a2bd
00000270: 881c 8dbd 6e7a a0bc f28c 513c a0e6 a2bd
00000280: ef2f c6bd 12a8 cb3d d5e6 4a3c 72ec fc3c
00000290: d5d4 a7bd 65cb 81bd 814e 2a3d ed83 3fbd
000002a0: 5f78 423c 3056 6ebc 4808 af3d 90c2 ee3c
000002b0: a1f2 813d 32de 853d 2f1b edbc a56c 2a3c
000002c0: b2f3 153d 617b 883d 2bec 67bd 5c3b 9d3d
000002d0: b10c 83bd 7d12 1bbd af20 ca3d a4f3 aa3d
000002e0: 44b4 983d 2d86 10bc 9d6f 22bd df9e 72bd
000002f0: e293 04bd 66f6 48bd 64d1 9c3c 282b 133c
00000300: 9bca 38bd a3eb 923d c062 ef3a 00e2 98bc
00000310: 8cc9 89bc 0bfa c0bd 2409 9f3c 67d9 3abd
00000320: d1e8 18bd ab40 9c3d d6cf c3bd 0aa3 583d
00000330: d7e0 80bd fa3e 4b3d 7054 e8bc 149a 8fbd
00000340: 00fb ba39 dc1e b3bd 1056 d3bc acf7 a0bd
00000350: 2b73 a03d 68c0 193c 6693 073d f861 fcbc
00000360: 24a1 b9bd 92d1 3b3d 623a 723d 34fd cd3c
00000370: 742a b0bc 944f 903c e4a6 81bc 2c9c ca3c
00000380: 30ae 46bc a415 fe3c d2ff 463d cfba 993d
00000390: 6a80 383d dac5 693d 7054 20bd b89f 8abc
000003a0: 9d45 843d b7b2 923d c085 97bd e834 4fbd
000003b0: 1031 973c 3030 9d3c 88e4 a2bd 824b afbd
000003c0: 981c 553c e56b 33bd 1666 84bd b777 a73d
000003d0: 75e0 8f3d 4afe 01bd a836 43bc 6475 fe3c
000003e0: 9617 a3bd 6f16 963d e7f6 87bd 3710 73bd
000003f0: d9a2 3d3d ffc4 303d a03e 703c d20e 98bd
-0.016421944 0.09114373 0.040312357 0.05006683 0.08519591 -0.06351924 -0.023580844 0.07864537
0.028604982 0.021800494 0.013207362 -0.14763886 0.09815452 -0.07787244 -0.14492325 -0.013963011
-0.017271219 0.056333724 -0.082461715 0.030285666 -0.030110367 -0.07200494 0.01641043 -0.08633197
0.020246726 -0.018524325 -0.11403631 0.029968247 -0.018149061 0.07334183 0.07084847 -0.10584878
0.03606265 -0.03983905 0.058791585 -0.1416922 0.063339315 -0.017437804 -0.12640516 -0.04822579
-0.03154756 -0.07590502 0.08025265 -0.04646015 0.0059534064 -0.045884863 -0.087278716 -0.020893909
-0.02625231 0.059621625 -0.065798745 -0.064537406 -0.014869973 0.04065844 0.075265326 -0.022412453
-0.03255175 0.00699707 0.05880239 -0.097624324 -0.0870046 0.0006526829 -0.014444839 0.01024078
0.01212008 0.04840436 0.06686008 -0.067341074 -0.010276353 -0.06984435 0.012653277 -0.10660488
0.026754744 0.090971515 -0.10377028 -0.059962306 0.019282563 -0.105110765 0.07481816 0.016180942
0.061267313 0.058599494 0.035306454 -0.015822222 -0.06556621 -0.05994922 -0.03269615 -0.06688272
-0.054008387 0.06284256 0.01242832 -0.059149988 -0.031136211 -0.053797826 0.081661575 -0.11702152
0.056477666 -0.08073665 -0.1037986 -0.08855745 0.05478131 -0.08343473 -0.064701006 0.07639337
-0.03868654 -0.022802314 0.06431927 0.030987076 -0.066282846 0.09749771 0.014203753 0.064036034
0.08103352 -0.08754961 -0.055856276 0.065552175 -0.05668918 0.06382992 -0.085554495 -0.08918559
-0.0039662234 -0.040547274 -0.09994319 0.035590358 0.04921376 0.014373958 0.018778486 -0.03341325
-0.01517426 -0.02401666 -0.04389629 0.038104672 -0.0073593594 0.02267046 0.0094272215 -0.04825425
0.05330906 0.016990945 0.00042392613 -0.052327998 -0.09484347 -0.029965866 -0.03413554 -0.06041699
0.056885634 -0.08761346 -0.05441388 0.07216541 0.07334232 0.07436221 0.0040258993 0.009444027
0.073302984 -0.01411448 0.02474154 -0.07915885 -0.068902075 -0.019589629 0.012789952 -0.079541445
-0.09677111 0.09944166 0.012384136 0.030874465 -0.08194891 -0.063376226 0.041578773 -0.046756674
0.011869519 -0.014546916 0.085465014 0.029145509 0.06345106 0.06536521 -0.028943626 0.010401879
0.03660936 0.06664158 -0.05662171 0.076773375 -0.06398905 -0.03785943 0.09869515 0.08347252
0.07456258 -0.0088210525 -0.039657224 -0.059233543 -0.032367595 -0.04906311 0.019142814 0.008982457
-0.045115095 0.071738504 0.0018263683 -0.018662453 -0.016819738 -0.09422692 0.019413538 -0.045617487
-0.037331406 0.07629522 -0.09561126 0.05288986 -0.06292885 0.049620606 -0.028360575 -0.0701181
0.00035663694 -0.0874612 -0.025797874 -0.0785974 0.078344665 0.009384252 0.033099554 -0.030808434
-0.09063938 0.04585416 0.05913771 0.02514515 -0.021504618 0.01761607 -0.01582665 0.024732672
-0.0121264905 0.031016178 0.048583813 0.07506334 0.04504434 0.05707345 -0.039143026 -0.016921863
0.0645859 0.071629934 -0.07398558 -0.050587565 0.018456012 0.019188017 -0.07953745 -0.08559324
0.013007306 -0.043804068 -0.06464784 0.08177131 0.07025234 -0.03173665 -0.0119148865 0.031061836
-0.07963483 0.073284976 -0.0663889 -0.059341636 0.04629788 0.04315662 0.014663368 -0.07424702
