model/best_model.tflite (tflite, 938808 bytes, 8 tensors)

arith.constant f4 [37, 128]
000000 f6 69 3d 3d 6a 53 d5 bd 38 92 63 3e 1d 48 55 3e
       0.04624363 -0.104163006 0.22223747 0.2082829
000010 d1 11 2e 3e 26 ea 2a be 74 36 0f be 35 44 49 3e
       0.16998984 -0.16690883 -0.13985616 0.19654925
000020 26 18 1b be f8 86 09 be 20 a0 d9 bd cf fe ad bd
       -0.1514593 -0.13430393 -0.106262445 -0.084958665
000030 0c 91 c9 3c d9 60 d9 3d bd 43 14 3d a9 94 b7 bd
       0.024605297 0.10614175 0.036197413 -0.089639015
000040 fe 98 a4 bc 9f 41 47 be 9d 3c bb 3c e8 81 90 bd
       -0.020092484 -0.19458626 0.022856051 -0.07056028
000050 9f 7f b0 3c 6d d9 17 3e a2 78 47 bd ae 41 57 be
       0.02154523 0.14829035 -0.04869903 -0.21021149
000060 13 28 47 be 36 7b 23 bd 2a 19 13 be 13 0e 6f 3e
       -0.19448881 -0.039912425 -0.14365068 0.23345213
000070 07 48 a8 bd 6a 17 4e 3e ba 76 85 bd af b7 0c 3e
       -0.08216863 0.2012612 -0.06516786 0.13741945
000080 a2 40 85 be df 17 d1 3d 43 99 da bd d0 b5 63 be
       -0.26025873 0.10209631 -0.106737636 -0.22237325
000090 bd 50 23 bd eb 34 da bc 63 3d 95 bd 61 8f 1f be
       -0.03987192 -0.026636561 -0.07287099 -0.15582038
0000a0 44 19 a6 3d 50 6d 28 be 53 c2 85 bd 6d de 1c bd
       0.08110288 -0.1644795 -0.06531205 -0.03829806
0000b0 70 11 1b be 35 3d 19 3e d5 d7 5e 3d 56 60 1d be
       -0.1514337 0.14964755 0.054405052 -0.1536878
0000c0 3b b6 0e 3e 8a e2 54 3e ba 66 6e 3e 59 e0 6c 3c
       0.13936703 0.20789543 0.23281375 0.0144577855
0000d0 80 7f 39 be 09 8f fd bd 55 6b 71 bc 8a b8 20 be
       -0.18115044 -0.123807974 -0.014735063 -0.15695396
0000e0 0c c5 32 3e 44 d7 18 be 21 75 34 3c 64 f3 47 3e
       0.1745798 -0.14925867 0.011014254 0.1952644
0000f0 e0 6a 46 3e 93 be 59 3e 16 f4 f3 bd d9 9c 60 be
       0.19376707 0.21264105 -0.1191179 -0.21934833
000100 bc cb 40 be 63 2d 06 be 1f b5 ae 3b 78 98 f5 3b
       -0.18827718 -0.13103251 0.00533165 0.0074949823
000110 b1 4d 62 3d 31 fc 45 3e d6 4d 55 3e 31 5a ea bd
       0.055249874 0.19334485 0.20830473 -0.11442984
000120 9b 3c 8c be 04 77 d2 bb 19 9d d4 bd fc 2e ed bd
       -0.27389988 -0.006422879 -0.103815265 -0.11581227
000130 a2 e5 c4 bc 9e af 23 be 30 f2 09 3e 0a bb e4 bd
       -0.024035279 -0.15984961 0.13471293 -0.11168487
000140 8d f6 a9 bd 74 34 f8 bd cf 22 9e bd ae ae fc 3d
       -0.08298979 -0.1211938 -0.07721483 0.12338005
000150 70 38 61 be 23 80 cd 3d 62 57 8e 3d c6 dd 37 be
       -0.21994185 0.10034206 0.06950261 -0.17955694
000160 ad 78 8e bd 67 47 fc bd 3b 33 7a 3e 0e 57 50 bd
       -0.06956611 -0.123183064 0.24433605 -0.05086427
000170 1d b5 62 3d a6 b5 15 be a9 96 a5 3d d9 b8 a8 bd
       0.055348504 -0.14620075 0.08085377 -0.08238382
000180 54 81 f1 3d e1 4c 16 be 06 1f 0b be a9 d3 34 3e
       0.117922455 -0.14677764 -0.13586053 0.17658867
000190 1e 1e cb 3d df 4c da bd 12 aa f7 bd 49 17 1d bb
       0.09917854 -0.10659193 -0.12092985 -0.0023970178
0001a0 56 16 3b be f6 cf 3d 3d cf 1a 08 be 98 9a 8f bc
       -0.18270239 0.046340905 -0.13291477 -0.01752977
0001b0 03 3e 44 be 8c ac e1 bd 5f 63 95 3d d4 b0 5b be
       -0.1916428 -0.11019239 0.07294344 -0.21454173
0001c0 a3 57 66 be 31 46 df bd 82 95 5c be 40 4d f2 bd
       -0.22494368 -0.1090206 -0.21541408 -0.118311405
0001d0 f9 2e a2 bc 4c 1f 88 3c 11 e6 d5 3d b4 02 46 bd
       -0.019797789 0.016616486 0.10444272 -0.04834242
0001e0 32 e8 fa 3b a7 ee 4f be 99 70 d3 bd c0 53 e4 3d
       0.0076570744 -0.20305882 -0.10324211 0.111487865
0001f0 cc 4c ae bd 68 b3 51 be 7e c6 4a be 56 3b 32 be
       -0.085107416 -0.20478594 -0.19802281 -0.17405447
000200 e5 f7 17 3e 05 51 4b 3d 7d 3c 68 3e 2c fd cd bd
       0.14840658 0.049637813 0.22679324 -0.10058054
000210 dc d5 2c be 1e ff 3c 3d 57 cf 87 be 20 fd ce 3d
       -0.16878456 0.046141736 -0.26525375 0.101068735
000220 b8 e8 1f 3e f4 4e ce bb 6e 1e ce 3c 94 7e ac bd
       0.15616119 -0.006296033 0.025160994 -0.0842258
000230 7d 48 94 bd 08 64 8e 3c 90 05 b3 bd a0 fc 14 3e
       -0.072403885 0.017381683 -0.08741295 0.14549494
000240 dc 06 cc 3d 2e 80 70 3e 4c cd 6f bb 66 67 4f be
       0.09962246 0.23486397 -0.0036590872 -0.20254287
000250 74 b2 c6 bd 4a 70 ab bd 24 bd 82 bd 34 79 86 3e
       -0.09702006 -0.08371027 -0.06383732 0.26264346
000260 8a 58 ae 3c 4a 1d 51 be 19 02 9b 3d cc b7 f5 bd
       0.021282453 -0.20421329 0.075687595 -0.11997947
000270 e9 b5 c1 bc 2b 94 92 3d 28 a9 3c bd ee b4 20 bc
       -0.023646312 0.07157167 -0.046059757 -0.009808762
000280 ea 24 5f be 60 91 14 3c 7d 32 23 be 74 41 6a 3e
       -0.21791425 0.009067863 -0.15937229 0.22876531
000290 a1 46 23 be 64 02 33 3e ff e7 71 bd 94 e4 d2 bd
       -0.15944912 0.1748138 -0.05905914 -0.10297504
0002a0 74 36 32 be 27 ba e5 3c ab 80 48 be 35 bf cf bb
       -0.17403585 0.028042866 -0.19580333 -0.0063399323
0002b0 5f df fa bd f9 c5 ea bc 1c d2 28 bd bf 28 4b 3e
       -0.12249636 -0.028658854 -0.041216 0.19839762
0002c0 65 b2 43 3e 70 3b 48 bc 37 38 13 3e 4f e8 15 be
       0.19111021 -0.012221202 0.14376913 -0.146394
0002d0 10 4b 06 be 39 93 26 be 12 20 0e 3d 0b 67 ec bc
       -0.13114572 -0.16267098 0.034698553 -0.028857728
0002e0 ad c9 b6 3d 0d 93 09 be d2 3f 5c bd 5e 40 17 be
       0.08925185 -0.13435002 -0.0537718 -0.14770648
0002f0 1b 77 4c be b1 b5 10 be 5a 89 a2 bc af ed ca bd
       -0.1996731 -0.1413181 -0.019840885 -0.09908616
000300 df f8 4d 3e 3d b2 0f 3e 60 bc 5b bd 08 0a da 3b
       0.20114468 0.14032836 -0.053646445 0.006654028
000310 32 34 cf 3c f2 8a db bd d6 45 81 bd 9b 5d 04 bd
       0.025293443 -0.10719861 -0.06312148 -0.03231583
000320 6c c2 95 3e 11 5b 55 bd b7 40 79 3e 90 98 21 3e
       0.29249895 -0.0520888 0.24341093 0.15780854
000330 a5 55 6b bd af 2a 72 3c 77 c6 13 3e a4 8a 0a be
       -0.057454724 0.014780684 0.14431177 -0.1352945
000340 bd 79 3c be e5 b2 75 3d ae 5f 2d 3e da 70 4e 3e
       -0.18405814 0.05998506 0.1693103 0.20160237
000350 53 99 c6 bc 49 a2 69 be 9d 53 80 bd 4c cd 9e bc
       -0.024243033 -0.22815813 -0.06265948 -0.019385003
000360 34 b8 b3 bc 8d 1d c6 bc 3e 8c 9f bc 6d e9 ea 3d
       -0.02193842 -0.024184013 -0.019476052 0.11470304
000370 f0 12 56 bd ec 44 e1 bd 02 fa 53 be bf 26 76 be
       -0.052264154 -0.10999474 -0.20700839 -0.24038218
000380 2e 9a 62 bd 17 7f 29 be de 37 65 3e 5b 92 8c bd
       -0.05532282 -0.16552387 0.22384593 -0.068638526
000390 8d 3b e1 bd ff 3b e9 bd b3 cc 4d be e0 c3 ed bc
       -0.109976865 -0.113883965 -0.20097618 -0.029024065
0003a0 99 bf 68 bd 91 ef ab bc 72 28 81 bd 6b d9 88 3c
       -0.056823347 -0.020988258 -0.063065425 0.016705235
0003b0 15 d2 85 bd 2e 2a 29 be 82 2d 61 be 3f 89 43 3e
       -0.065342106 -0.16519997 -0.21990016 0.19095324
0003c0 f3 c7 38 be 84 94 d8 3d 69 a9 51 3e 5e b6 c4 3d
       -0.18045025 0.10575202 0.20474781 0.09605096
0003d0 ec 5c 1f 3e d5 f7 31 be e4 4b 88 be 77 a1 0d be
       0.1556279 -0.17379697 -0.266204 -0.13831125
0003e0 3a 21 78 be ca 2b 49 be 19 72 c5 3d 86 4d 37 be
       -0.24231425 -0.1964561 0.09640903 -0.17900667
0003f0 8d 60 9c 3a 77 32 25 be d4 51 c4 3d 03 f9 27 3e
       0.001193063 -0.16132532 0.0958592 0.16403584

arith.constant1 f4 [37]
000000 25 43 75 40 60 28 2e 40 ef 6c 30 40 f2 fc 4b 40
       3.8322232 2.7212143 2.7566488 3.1873136
000010 83 3b c0 3f 7c 3c f3 be 78 c3 8a 40 bf f0 db 3f
       1.5018162 -0.47507083 4.336361 1.7182845
000020 13 d2 33 40 43 44 58 40 05 07 6b 40 59 85 37 40
       2.809697 3.3791664 3.6723034 2.867514
000030 76 f9 b4 3f 68 44 f3 3f 1c 06 ae 3e dd 4b f0 be
       1.413863 1.9005251 0.33989036 -0.4693288
000040 be 47 fa 3f 55 89 3b 40 7b 29 fd 3f f9 2c 2a be
       1.9553144 2.930257 1.9778284 -0.16618718
000050 e2 a5 a3 3f 2a f3 33 bd 70 85 7f 3f 33 01 69 40
       1.2784998 -0.04393307 0.99812984 3.6406982
000060 11 d6 6b 40 44 23 79 bf 18 02 88 be d1 4d 06 40
       3.6849406 -0.97319436 -0.26564097 2.0984995
000070 6c 8d fa 3f 54 f4 9c bf 9d 30 df bf 20 84 53 40
       1.9574409 -1.2262063 -1.7436711 3.3049393
000080 54 48 d7 3f 0e fc fe 3f be 84 d9 bc e1 a6 80 40
       1.6818948 1.9920671 -0.026552554 4.020371
000090 cb e5 59 40
       3.4046504

arith.constant2 f4 [128, 256]
000000 cb db b0 3d cc 68 0c be 60 52 fa 3d 75 b1 46 3e
       0.08635672 -0.13711852 0.12222743 0.19403632
000010 4b e7 b0 3c 3f 1d d6 3d a3 89 eb bd cb 3a 12 3e
       0.021594664 0.10454797 -0.115008615 0.1428024
000020 2b 44 ae bd 59 d2 54 bd 64 79 ae 3e 42 6d 92 be
       -0.08509096 -0.051958416 0.3407699 -0.28598982
000030 79 4a 1b 3e e7 b3 c0 3e 92 8d 6e be 7b a5 b4 be
       0.15165128 0.37637255 -0.23296192 -0.35282502
000040 b3 e6 39 3e 9c bf 98 be 5d 30 58 3e fa 77 5a bc
       0.18154411 -0.29833686 0.21112199 -0.013334269
000050 a5 2f 81 3e d6 bd c8 be b5 b5 ee bc 30 ed a0 bc
       0.25231662 -0.39207333 -0.029139379 -0.01964435
000060 79 f8 a1 bd 8a d6 40 3a e5 85 d9 3d 4d f0 82 3e
       -0.079087205 0.00073561876 0.106212415 0.2557396
000070 0c b3 25 3d 2b 8a 00 be 7e 1c d7 3c 6a 18 cb be
       0.040453956 -0.12552707 0.026258703 -0.39667064
000080 ac e0 d0 bd 70 cb e9 bd 4d fc ad be ba 88 ad 3e
       -0.10199103 -0.11415756 -0.33981553 0.33893377
000090 7f 96 4e 3d 26 23 35 be 46 f6 dd bd 0b 95 4c 3e
       0.050436493 -0.1768919 -0.108379886 0.1997873
0000a0 8d ba 32 3e 5f d9 c3 3d 98 98 73 3e 68 58 48 be
       0.17453976 0.095629446 0.23788679 -0.19564974
0000b0 ee f0 81 be 23 dc f4 3c fb fa 49 be 37 39 40 bd
       -0.25379127 0.029890126 -0.19724648 -0.046929564
0000c0 da 43 23 be d3 62 9e 3a 2c 20 64 3e d4 ec 70 3d
       -0.15943852 0.0012083895 0.22277898 0.058819607
0000d0 f2 9b fd bd 0e 5b 98 3e 78 d7 78 be 6f 89 b3 bd
       -0.1238326 0.2975697 -0.24300945 -0.08766448
0000e0 47 ba 2c 3d ba 1f 4c 3e 2a c9 19 be 59 20 b5 3c
       0.042169835 0.19933978 -0.15018144 0.022110151
0000f0 00 f4 26 be 7a 06 7f be 3a ff eb 3d 8b 25 6d be
       -0.16304016 -0.24904814 0.1152329 -0.23158853
000100 44 72 54 3e b9 17 b8 be f4 91 1c be c9 11 bb 3e
       0.20746714 -0.359556 -0.15290052 0.36537006
000110 52 85 38 bd 7b 8e 7a bd 50 48 03 bd 54 53 0f 3e
       -0.04504902 -0.061171036 -0.032051384 0.13996631
000120 e9 4a 43 3d c6 70 47 be b4 93 d4 bd 3a 81 87 bd
       0.04767886 -0.19476613 -0.10379735 -0.06616445
000130 88 b6 a0 bd 9f 01 e9 bd 0b 8c 88 3e 78 2c 8d be
       -0.07847315 -0.11377262 0.26669344 -0.2757299
000140 d6 51 b3 bd ce 97 5c 3e 7c 2f b3 3e 58 c0 af bd
       -0.08755843 0.21542284 0.34997165 -0.085816085
000150 5a 31 1e 3d b1 00 99 bb 7b 07 e3 bd cc b9 54 3e
       0.038621284 -0.004669272 -0.11085411 0.20774001
000160 45 ff da 3d 22 5c 0c be 03 c4 ec bd e4 24 b2 be
       0.1069322 -0.13707021 -0.11560824 -0.3479377
000170 17 64 26 be 93 a1 8c 3d 88 f0 d8 bd e0 3a 69 be
       -0.16249119 0.06866755 -0.10592753 -0.22776365
000180 9c 85 af 3d d8 cf b0 bd 99 85 de bd 00 77 3e 3e
       0.08570406 -0.08633393 -0.108653255 0.18600082
000190 39 f6 92 be 7e 6f a4 bd b7 08 73 3e 00 f4 7c 3e
       -0.28703478 -0.08029078 0.23733793 0.24702454
0001a0 18 2f 6e bd 18 6f 50 bd 07 8c 02 3e 95 1e 9a 3d
       -0.05815038 -0.050887197 0.12748729 0.07525364
0001b0 ce 79 12 be 15 d9 0b be 27 f9 5d be fa a2 b6 be
       -0.14304277 -0.13657029 -0.21677075 -0.35671216
0001c0 ce 4f 85 bd df 9d be 3d 91 eb 3e 3d fc 63 c2 bd
       -0.06509362 0.09307455 0.046611372 -0.09491727
0001d0 27 92 a6 be c6 a2 c9 be 5a 7b 08 be da 6e 13 be
       -0.3253338 -0.39382 -0.13328305 -0.14397755
0001e0 f2 96 78 3e 2e 7c d8 bd 65 8d 0b be be 54 c1 be
       0.24276331 -0.105705604 -0.13628156 -0.37759966
0001f0 ef e3 e7 bd e0 b8 55 3e c7 73 19 3e bc 96 ff 3c
       -0.11322772 0.20871305 0.14985572 0.031199805
000200 a2 7a 0f be 77 0c e8 3c ea 4b d5 bd 4d ca 9c 3e
       -0.14011624 0.028326256 -0.1041487 0.30623093
000210 68 9c 55 bd 1b ed 77 3e 65 6a bf 3d e8 ad b1 3d
       -0.052151114 0.24211542 0.09346465 0.08675748
000220 3e fe ca bb d4 56 89 3e e4 7f 26 3d 14 e8 fb 3c
       -0.006194859 0.26824057 0.04064931 0.030750312
000230 98 64 89 3d 24 b7 94 3e 89 e0 a6 be 10 cc 46 bd
       0.0670864 0.29045975 -0.32593182 -0.048534453
000240 ce 11 1a be 18 f0 e7 3d 04 dc 26 be cf a2 7c be
       -0.15045854 0.11325091 -0.16294867 -0.24671482
000250 26 fa f0 bc 11 ba bf 3d 10 71 63 be 7c 19 2a 3d
       -0.029416155 0.09361661 -0.22211099 0.04152821
000260 5a 03 a5 be 9c f7 ea bd ce 1b 18 be 4c 93 37 3e
       -0.3222912 -0.11473009 -0.14854357 0.17927283
000270 62 ad 7a be 64 42 08 3e 5d d3 c7 bd 70 c3 74 be
       -0.24480203 0.13306576 -0.09757111 -0.23902678
000280 53 43 6e bc ea de f1 3d b1 9a f0 3d 8a ec e0 3d
       -0.0145424185 0.118100956 0.11748255 0.10982616
000290 69 b5 8f 3d fd ff 54 be 85 fe 80 3e bc f9 4a be
       0.07017023 -0.20800777 0.25194183 -0.19821829
0002a0 7d 8d eb bd 03 0e 1c be ca da cb bd 3f 77 51 be
       -0.11501596 -0.1523972 -0.0995384 -0.20455645
0002b0 97 c9 41 be 7e 2a f2 3c 4a 0e 89 be 79 d2 be bd
       -0.18924557 0.029561277 -0.26768714 -0.09317488
0002c0 3d f0 10 3e b5 64 a8 3d 71 cf d1 3d 50 35 53 3d
       0.14154144 0.08222333 0.102446444 0.051564515
0002d0 de f1 05 3e 6a 57 a5 be 45 4b 11 bd 4a 4d 49 be
       0.13080546 -0.32293254 -0.035472173 -0.1965839
0002e0 65 03 48 3c 64 1e 88 be 57 16 a7 3d 8f 66 87 3c
       0.012207841 -0.26585686 0.08158558 0.016528396
0002f0 13 82 00 3e 46 de c2 3e 06 25 df 3d 0d 2c 9a 3e
       0.1254962 0.38060206 0.108957335 0.30111733
000300 e3 17 82 3e 0b 47 54 bd cc 4d a6 3e 04 25 b7 be
       0.2540885 -0.051825564 0.3248123 -0.35770428
000310 c9 09 c5 be 33 d7 28 be ec 5b 26 3e ea 0a dc 3d
       -0.38484028 -0.16488342 0.16246003 0.10744269
000320 49 ae e4 3c ec 91 8c bc 38 55 cb bd 51 38 7b bd
       0.027915137 -0.017159425 -0.099283636 -0.061333004
000330 7f a2 a3 be 37 56 f6 3d 04 9b 43 3e f9 c4 6f be
       -0.31959912 0.12028163 0.19102103 -0.23414983
000340 f9 6d 0c 3e 57 25 f6 3d 84 e0 c4 3e a3 28 e5 bd
       0.13713826 0.12018841 0.38452542 -0.111893915
000350 b2 98 4e 3e ab 08 6a be ca 8e 54 be 5a a8 1f bd
       0.20175436 -0.22854869 -0.20757595 -0.038978912
000360 df 9c 85 bc cf 13 ec 3d 86 88 38 3e 6f 80 87 be
       -0.016310154 0.11527216 0.1802083 -0.26465175
000370 77 4c 4f be cf 4d 4a 3d c6 87 1f be f2 f3 fd bd
       -0.20244013 0.04939061 -0.15579137 -0.124000445
000380 49 dd 4f bd 62 74 04 be cb 1d bd 3b d8 8a 18 3e
       -0.050748143 -0.12935022 0.005771374 0.14896715
000390 1c 7b 42 3d 21 ea 79 3e ea ae 03 bd 73 ea c1 bd
       0.047480687 0.2440572 -0.032149233 -0.09468546
0003a0 28 0b 10 bd 01 4a 06 3e c7 90 90 be 56 a9 8f be
       -0.03516689 0.13114168 -0.28235456 -0.2805888
0003b0 4f de aa 3d 17 d8 66 3b e2 a0 a1 bd 1f f7 a9 be
       0.08343183 0.0035224014 -0.07892014 -0.3319635
0003c0 e8 e9 0d bd 80 86 e7 be 77 57 77 3e ee 14 ee be
       -0.0346469 -0.45219803 0.24154459 -0.46500343
0003d0 7d b6 0a bd 08 78 32 3d b9 6a 3a 3e 65 fa a8 3e
       -0.03386544 0.043571502 0.18204774 0.33003536
0003e0 a4 aa 3d 3e fc 5b c6 bd 8c d9 09 be 61 ad c5 3d
       0.18522125 -0.096855134 -0.13461894 0.0965221
0003f0 a4 d9 21 3d 0b 64 00 be 15 9b e1 3e c2 80 f8 bd
       0.0395142 -0.12538163 0.4406363 -0.121339336

arith.constant3 f4 [128]
000000 db 8a 9b 3f 0c f9 19 40 08 ae e4 3f fa 36 f6 3f
       1.215175 2.4058256 1.786561 1.9235528
000010 42 bd 25 be 16 10 83 3f f2 8c d6 3f 09 bd e8 3f
       -0.16185477 1.0239284 1.6761763 1.8182689
000020 73 e5 7e 3f 64 11 24 40 77 95 4d 3f c0 f6 66 3f
       0.9956886 2.5635614 0.8030619 0.9022026
000030 3f fb 11 40 3b 3f d3 3f d5 8f ce 3f 1c 97 bb bd
       2.2809598 1.6503671 1.6137644 -0.09159681
000040 f3 e3 cb 3f 06 5d ba 3f ff 79 03 40 9e 97 d6 3e
       1.592894 1.4559639 2.054321 0.4191255
000050 b1 68 67 3f 4c 07 7e 3f ed 38 8e 3c 30 b1 ee 3f
       0.9039412 0.99229884 0.017361129 1.8647823
000060 5c da b4 3f 6a 16 db 3f c6 13 bd bd c5 dd 89 3f
       1.4129138 1.7116215 -0.09232287 1.0770804
000070 3f 68 ec 3f 1a 4e 62 bd 48 48 2f 40 ed 5c 0d 40
       1.8469313 -0.055250265 2.7387867 2.2087967
000080 e5 cd 2c 40 c9 b8 e5 3f 95 f5 e6 3e cb b3 d3 3f
       2.7000668 1.7947017 0.4510924 1.6539243
000090 66 c9 80 3f e3 9d b9 3f e8 d6 07 40 1c 12 22 40
       1.0061462 1.4501308 2.1224918 2.5323553
0000a0 ea 50 ba 3f 04 1d 58 3f e8 ef f9 3e 8d 7b b0 3f
       1.4555943 0.84419274 0.48815846 1.3787705
0000b0 c9 ae 3b 40 16 3c 3c 40 4e f2 b3 be 92 8b a6 3f
       2.932543 2.9411674 -0.351458 1.3011343
0000c0 ff 5b 16 40 c9 0d 3f 40 29 10 cf 3f e4 c6 1d 3e
       2.349365 2.9852164 1.6176807 0.15407902
0000d0 4e d4 0d 3f da 21 bf 3d c6 45 2e 3f 5a e8 fa 3f
       0.55402076 0.093326285 0.68075216 1.9602158
0000e0 96 cf 05 40 b0 b8 ed 3f 85 0b d2 3f 66 f6 6b 3f
       2.090795 1.8571987 1.6409765 0.9217285
0000f0 f1 f2 1d 40 fc c1 81 3f 83 01 bc 3f d2 06 71 be
       2.467953 1.0137324 1.4687961 -0.23537758
000100 6e e3 e4 3f d6 e9 6a 3f 3e e8 87 3f 41 1b a2 3f
       1.7881906 0.91763055 1.061775 1.2664567
000110 de 88 80 3f d8 c2 8f 3f 0b 30 a1 3f 4e fe 06 40
       1.0041769 1.1231337 1.2592787 2.1092715
000120 05 0f 47 40 88 8b b8 3f b4 b2 01 3f dc 3d cd 3f
       3.1102917 1.4417582 0.50663304 1.6034503
000130 ad 19 09 40 bf 22 20 3f 0b 19 03 3f 87 af bb 3d
       2.1421921 0.6255302 0.5121009 0.091643386
000140 5f 0d 9a 3f 65 c7 05 3f 82 d1 f8 3f 9d 7a 34 40
       1.203533 0.52257377 1.9438937 2.8199837
000150 05 8b a4 3f 6d 84 45 40 cf 63 9f 3f ab c7 98 3f
       1.2854925 3.0862076 1.2452334 1.1935934
000160 ed c7 b5 3f 51 95 d0 3f 34 aa b5 3f 21 54 5d 3f
       1.4201638 1.6295568 1.4192567 0.86456496
000170 96 7f b5 3f dc 4d e8 3f 38 4e 96 3f 40 ea 0c 40
       1.4179561 1.8148761 1.174262 2.2017975
000180 10 84 cf 3f 81 c3 cc 3f e7 61 32 40 a8 dc 36 3f
       1.6212177 1.5997163 2.7872255 0.71430445
000190 f0 b1 ee bb 9f 99 10 3f ac d0 61 3f 4b 1f 51 be
       -0.0072843954 0.5648441 0.88209033 -0.20422094
0001a0 63 6d 1e 40 ed 68 a8 3f 17 80 46 bf 81 14 bb 3f
       2.4754264 1.3157021 -0.775392 1.4615632
0001b0 e9 b3 5d 3f 01 8b 48 40 93 73 0a 40 e5 90 a4 3f
       0.86602646 3.1334841 2.163304 1.2856718
0001c0 10 f8 7b 3e 4f 4a a6 3f 15 90 ee 3f a7 59 6a 3f
       0.24606347 1.2991427 1.863772 0.9154305
0001d0 21 76 b9 3f 99 9a f9 3f b3 77 26 3f 6b 4a 6e 3f
       1.4489175 1.9500304 0.65026397 0.930823
0001e0 23 e2 5a 3e ad b5 19 3f 59 76 ef 3f 9c bd ad 3f
       0.21375327 0.6004284 1.8707992 1.3573489
0001f0 6f 72 e2 3f 2a 9c 98 3f 2e b6 1e 40 e4 1d 25 40
       1.7691172 1.1922657 2.4798694 2.5799494

arith.constant4 f4 [256, 512]
000000 92 fd af bf 28 02 0a 40 39 26 df be c3 ca e1 3f
       -1.3749259 2.1563816 -0.4358385 1.7640003
000010 10 1f 73 3f 8f 9d 91 bf 79 4e 70 c0 72 55 78 3e
       0.9496927 -1.1376208 -3.7547896 0.24251345
000020 a5 78 02 3f 90 50 8c bf ec 58 02 40 05 e3 f2 3e
       0.5096534 -1.0962086 2.0366774 0.47438827
000030 47 d7 51 3f 2c 68 ca bf 7b f4 93 3f 34 4f a7 bf
       0.8196911 -1.5813041 1.1558985 -1.3071046
000040 23 43 13 40 61 02 cf 3f 63 19 58 bf d4 6c 02 c0
       2.3009727 1.6172601 -0.8441374 -2.0378923
000050 c1 94 63 3f 13 90 02 3f 30 b5 3e 40 f4 a9 e0 3e
       0.88898855 0.5100109 2.9798088 0.43879664
000060 c3 70 ef 3e 68 fa 60 40 2b 6a 4f 40 30 6b 0c c0
       0.46765718 3.5152836 3.240855 -2.1940422
000070 e6 de 64 c0 67 89 b1 3f 13 96 af 3f 9b 41 4a 3f
       -3.5761046 1.3870057 1.3717674 0.79006356
000080 b8 b6 b9 3f 4f f5 80 be 4b f8 6a 3f bd 1a 1e be
       1.4508886 -0.25187156 0.91785115 -0.15439887
000090 89 3d 17 bf 12 7b 2d c0 e6 86 31 c0 b7 56 32 40
       -0.5907827 -2.7106366 -2.7738585 2.7865427
0000a0 ea 9f 09 40 16 c2 bf 3f 1d 56 cb 3e 78 3f 5e c0
       2.1503854 1.4981105 0.39714137 -3.4726238
0000b0 5d 3a 15 c0 28 6e aa bf 55 4e 4e bf 8b c8 ca bf
       -2.3316872 -1.3314867 -0.80588275 -1.5842451
0000c0 04 1d 19 40 1e 0c a4 bf 3c 08 3c 40 10 7c 1d 3d
       2.392396 -1.2816198 2.9380026 0.038448393
0000d0 bc 1f 9c bf 78 10 76 3f 34 c3 90 3e b9 ca ee 3f
       -1.2197185 0.9611888 0.28273928 1.8655616
0000e0 fd 2d a0 3f 72 9d 02 c0 16 8e 4e be 98 d6 fe 3f
       1.2514035 -2.0408597 -0.20171389 1.9909239
0000f0 49 5e 47 bf 0b 83 f4 3e d9 12 72 bf 10 ff 70 3f
       -0.7787824 0.47756228 -0.9456001 0.94139194
000100 38 6b 26 c0 ac ae 16 c0 64 23 f6 bd 01 1c cc bf
       -2.600294 -2.3544111 -0.12018469 -1.5946046
000110 ab ca ca 3f de 95 28 40 3e 28 c3 3f b7 de 92 bf
       1.5843099 2.6341472 1.5246656 -1.1474217
000120 6c 35 0b bf 76 1c a4 be 71 d1 b8 bf 97 2e 8a bf
       -0.5437839 -0.32052964 -1.4438916 -1.0795468
000130 02 8e 45 3e 30 91 07 c0 03 07 cf 3f 0e a3 1d c0
       0.19292453 -2.1182365 1.6174015 -2.463077
000140 f5 92 ce bf 40 9f b0 bf 96 bd 80 bf b9 39 b3 be
       -1.6138598 -1.3798599 -1.0057857 -0.35004976
000150 9d 99 ff bf 9e b2 14 c0 3f ac fa 3d 65 cc f2 3f
       -1.9968754 -2.323402 0.122398846 1.8968626
000160 3d 41 fc 3f 69 6f 62 be 41 ca ff be 11 85 ac 3f
       1.9707409 -0.22112812 -0.49958995 1.3478109
000170 e7 8e 55 40 b2 5a 8d 3f bc f7 0c 40 f8 c9 4b c0
       3.336847 1.1043303 2.2026205 -3.1842022
000180 79 7d 3d 40 55 e0 f6 bf d1 62 50 c0 75 11 30 3f
       2.9607832 -1.9287211 -3.2560313 0.6877664
000190 b7 7d db 3e 17 98 66 bf da 88 31 40 81 92 07 3f
       0.4286935 -0.9007582 2.7739778 0.5295792
0001a0 05 db 07 bf 75 e5 cd 3f 56 22 02 40 7d d9 4a 3f
       -0.5306857 1.608565 2.0333457 0.7923811
0001b0 88 71 67 40 7a fc 3e 3d 03 41 91 be 2f d9 12 40
       3.6163044 0.0466275 -0.28369913 2.2945058
0001c0 70 23 1e 40 4f d1 f1 bf ac da 05 3e c1 61 73 bf
       2.470913 -1.8892001 0.13071698 -0.95071036
0001d0 33 45 38 3e a1 82 91 bf f1 5f 08 40 34 d5 9e 3f
       0.17995147 -1.136799 2.1308558 1.2408814
0001e0 7f d7 51 3e 16 ca d4 3e f8 00 15 c0 58 86 82 3f
       0.20492361 0.4156043 -2.3281841 1.0197248
0001f0 ff 9a fe 3f 50 fc 03 c0 16 f1 a2 bf 34 76 cd 3f
       1.9891051 -2.062275 -1.2729824 1.6051698
000200 e6 3a 95 3f df 6b 21 3f d8 c5 c7 3e ba 1d 7a bf
       1.1658599 0.63055223 0.3901813 -0.9770161
000210 4b c4 c1 3f dd 7e dc bf 23 10 79 3f 87 1a 17 40
       1.5138029 -1.7226216 0.9729025 2.360994
000220 18 53 ef bf ce bf 6d bf 3c 8f 4f bf 3a ce 71 bf
       -1.8697233 -0.92870796 -0.81077933 -0.944553
000230 de bb c8 bf 75 08 6a bd 12 0b 07 c0 2b 4e 01 3f
       -1.5682333 -0.05713697 -2.1100507 0.505099
000240 b2 5f f7 3d de 5e 02 c0 d6 25 92 3f 66 04 15 bf
       0.12078799 -2.0370402 1.1417797 -0.58209836
000250 5c 04 67 bf 21 a7 d4 3d 3c ff 01 c0 26 1e 1d bf
       -0.90241027 0.1038344 -2.0312033 -0.6137413
000260 98 37 94 bf a6 26 c5 c0 32 30 10 40 a8 87 88 bf
       -1.1579466 -6.160968 2.2529416 -1.0666399
000270 79 ae a9 3f 04 9b 2d 40 3b c7 95 bf 61 50 1a 40
       1.325637 2.7125864 -1.1701425 2.411156
000280 e3 b7 c5 3f 37 de f7 bf 30 e7 be 3f a3 78 36 c0
       1.5446743 -1.936469 1.4914303 -2.851113
000290 43 21 1f 3e ac 33 9a 3e ed 93 7c 3d d5 1d 0e 40
       0.15540032 0.30117548 0.06166451 2.2205708
0002a0 46 5a 56 bf 69 43 af bf 67 fa 18 40 af a8 39 bf
       -0.83731496 -1.3692447 2.3902833 -0.72523016
0002b0 08 7f 1e 3f 8d 4e b5 3f 0a 08 c7 be ca 0a 67 3e
       0.61912584 1.4164597 -0.3887332 0.2256271
0002c0 14 ed cf bf 3b 02 6c 3f 3a a2 b1 3f 12 51 20 c0
       -1.6244226 0.92190903 1.3877633 -2.5049481
0002d0 df a6 cd 3e 2d 92 ce be 06 31 23 be 27 7f 4c bd
       0.40166375 -0.40345898 -0.1593667 -0.04992595
0002e0 c3 54 a5 be c9 c5 8f be 45 14 32 40 2c be b5 bf
       -0.3229123 -0.28080586 2.7824872 -1.4198661
0002f0 5b a9 26 40 79 e9 05 bf b4 84 2c 40 ae 4c fa 3f
       2.6040866 -0.52309376 2.6955996 1.9554651
000300 1c e4 e0 be 7c 82 e8 3d 04 6a 94 3f b8 16 14 c0
       -0.43924034 0.11353013 1.1594853 -2.3138866
000310 c0 d2 7d bf ad e4 06 40 d6 f7 1b 40 fa 43 31 c0
       -0.99149704 2.1077073 2.4370017 -2.769774
000320 70 f4 22 c0 e9 d9 1c bf fe 87 2e c0 f5 19 47 be
       -2.5461693 -0.61270005 -2.7270503 -0.19443496
000330 36 45 15 bf 52 5d a3 3f 68 3c c9 3e 11 79 ea 3e
       -0.5830873 1.2762854 0.393039 0.4579549
000340 6c ee a4 3f 60 33 4a bd 84 42 c6 3f 23 78 12 40
       1.288526 -0.0493654 1.5489049 2.2885826
000350 9c 94 90 bf dc 87 09 bf 96 61 db bf 20 f3 01 40
       -1.1295352 -0.5372293 -1.7139156 2.0304642
000360 09 16 5d 3e 34 74 4f c0 8e dd ea 3f d6 45 9c 3b
       0.21590437 -3.2414675 1.8348863 0.0047690673
000370 a9 a9 f5 bd a1 ae a4 bf 15 e2 0b 3f 18 bd 5d be
       -0.11995251 -1.2865793 0.5464185 -0.21654165
000380 4c f7 05 c0 70 a8 21 40 6d bc 8e bf 8e 53 13 bf
       -2.0932188 2.5259056 -1.1151253 -0.5754937
000390 a6 6d e8 be b5 0a ec bf a7 72 ea bf 3e 91 6e bf
       -0.45396155 -1.8440768 -1.8316239 -0.9319037
0003a0 ab 04 fa 3f e0 44 ae bf 2b d6 07 bf 19 bc 8c bf
       1.9532675 -1.3614769 -0.5306117 -1.0994903
0003b0 96 40 21 c0 47 04 64 40 4f b5 1a c0 25 6a 8c 3c
       -2.519567 3.562761 -2.4173162 0.017140457
0003c0 ab 56 b4 3e fc e0 24 be 39 2a 05 c0 99 11 21 3e
       0.35222372 -0.1610145 -2.080702 0.15729369
0003d0 23 9d 2e bf 21 8f d5 3f 7f 31 d0 3f dc 2a 17 40
       -0.6820852 1.6684304 1.6265105 2.361991
0003e0 0b b9 85 3f 69 d1 18 c0 9e f4 83 3e cf 11 d8 bf
       1.0447096 -2.3877814 0.25772566 -1.6880435
0003f0 15 f6 50 3f 85 fa ec 3c fa 30 8d 3e 6b e2 ce be
       0.8162549 0.02892805 0.2757643 -0.40407118

arith.constant5 f4 [256]
000000 6c 76 68 3f ce c0 74 c0 64 23 37 40 78 c0 5c 40
       0.908057 -3.8242679 2.861535 3.4492474
000010 50 a3 ec c0 83 e6 b0 40 b5 71 c2 c0 9a f3 08 3f
       -7.3949356 5.5281386 -6.0763803 0.53496706
000020 fb 1f 5f bf 80 72 44 bf 20 f4 dd bf f0 ab a7 c0
       -0.87158173 -0.76737213 -1.7340126 -5.2397385
000030 73 7f 7d 40 3a 27 48 3f 45 85 3e 40 cc 96 d7 c0
       3.960904 0.78184855 2.9768841 -6.737158
000040 27 ba 21 3f b3 7b d7 bf 58 dd 80 bf 6e 7e 71 40
       0.6317467 -1.6834625 -1.0067549 3.7733417
000050 40 4f 07 40 82 d5 3d bf 6e ed 3f c0 03 ef 23 40
       2.114212 -0.7415391 -2.9988666 2.561463
000060 1b 81 c8 c0 76 84 4c c0 1d fe 3c c0 22 a5 c8 c0
       -6.26576 -3.1955848 -2.9530098 -6.270158
000070 9b 61 9a 40 e8 a6 87 bf b7 73 40 40 a4 85 2c c0
       4.8244147 -1.0597811 3.0070627 -2.6956568
000080 b8 d4 80 40 9c 09 7b 40 f5 6f 17 c0 22 a0 75 c0
       4.0259666 3.9224615 -2.3662083 -3.8378987
000090 37 05 45 bf ed c1 12 bf cf 8b a1 c0 54 10 c2 bf
       -0.7696108 -0.5732716 -5.0483165 -1.5161233
0000a0 ef 7a ac 40 68 79 a3 c0 d6 23 82 c0 cc 50 13 bf
       5.3900065 -5.10857 -4.0668745 -0.5754516
0000b0 6e c7 95 3f f4 a5 dc 3e 12 e6 1e c1 65 4f 7f bf
       1.1701486 0.43095362 -9.9311695 -0.9973052
0000c0 52 a8 b6 3f b9 af f3 bf c4 52 02 c1 51 79 47 40
       1.4270117 -1.9038001 -8.145206 3.1167796
0000d0 70 72 fc bf 07 7e f7 3f 90 c8 97 c0 f2 a5 46 3f
       -1.9722424 1.9335335 -4.7432327 0.7759696
0000e0 04 f5 9c c0 58 2d 7b c0 e2 4f fc 3f 3e 54 53 40
       -4.904909 -3.9246426 1.9711878 3.3020167
0000f0 d6 e6 c4 40 be 67 e8 3f cf 67 ca bf bb 9b af 3f
       6.153178 1.815666 -1.581293 1.37194
000100 31 07 76 3c c7 6a 84 bf d4 2c 11 c1 dd f7 24 c1
       0.015016363 -1.0345086 -9.073444 -10.3105135
000110 c1 06 d3 3d 62 cd eb bf 5b 8f c3 c0 3b 53 30 40
       0.103040226 -1.8422053 -6.1112494 2.75508
000120 ee 37 20 40 00 19 fe bf e9 19 5c 3f fa ea d2 c0
       2.5034137 -1.9851379 0.85977036 -6.5911837
000130 90 ec 9e c0 35 6c d3 bf 1c 8f 32 c0 6f c2 f0 c0
       -4.9663773 -1.6517397 -2.7899847 -7.5237346
000140 26 c7 33 c0 ec d9 9b bf 29 79 94 3f d4 25 93 3f
       -2.80903 -1.217588 1.1599475 1.1495919
000150 e4 88 8d c0 ce 5a ae 3d d2 fd 92 c0 1b 95 42 3c
       -4.4229603 0.08513413 -4.593484 0.01187637
000160 a4 5a 42 40 b7 37 ce bf af 87 7f c0 9c 05 1d c0
       3.0367823 -1.6110753 -3.9926565 -2.4534674
000170 15 4a 51 c0 c5 8d 9b 40 e1 32 cc 3e 42 14 a9 3f
       -3.2701466 4.861056 0.39882568 1.3209307
000180 dd b6 09 3f b5 e9 81 bf 1d b9 e2 3e 59 d7 86 40
       0.5379465 -1.0149447 0.44281855 4.2137876
000190 58 c1 55 c0 22 27 cf 40 2d 6e ca bf a9 68 a1 bf
       -3.3399258 6.473527 -1.5814873 -1.2610065
0001a0 f9 31 57 c0 26 8d 0a c0 cc 6a d7 c0 96 f1 38 c0
       -3.362425 -2.164865 -6.7317867 -2.8897452
0001b0 ac 4e 47 c0 44 db e6 3f d2 55 7b 3f c6 f1 0f 3f
       -3.1141768 1.8035665 0.98177826 0.5622829
0001c0 bd 7a 85 c0 b5 cb 84 c0 92 67 88 40 61 20 fd c0
       -4.1712327 -4.1498666 4.262643 -7.9102025
0001d0 3e 4a a5 c0 26 6f 23 c0 6c b1 bc 3f 0b e1 32 c0
       -5.165313 -2.553659 1.4741645 -2.7949855
0001e0 e8 25 8f 40 7c af 34 be d1 e3 ea bf 53 e8 f5 bf
       4.473377 -0.17645067 -1.8350774 -1.9211525
0001f0 bf 44 20 40 b9 7a 92 c0 a7 49 b9 3e b4 02 e4 c0
       2.504196 -4.577481 0.36189005 -7.12533
000200 e1 3f 01 3f 71 f6 63 40 66 df f2 3f 76 20 16 40
       0.50488096 3.5619166 1.8974426 2.3457313
000210 0f d8 55 bf 69 cd c3 c0 e6 d2 a0 bf b3 59 9e 40
       -0.83532804 -6.1188245 -1.2564361 4.9484496
000220 2a aa 32 3f b9 ba af 40 68 58 5c 40 a3 b0 0a bf
       0.697909 5.4915433 3.442896 -0.54175776
000230 21 76 66 be 7a 64 b8 bf 05 64 c4 bf b0 d2 76 3f
       -0.22506 -1.4405663 -1.5343024 0.96415234
000240 66 58 93 bf 8c 0a 42 c0 24 27 e2 3f 14 29 f7 3e
       -1.1511352 -3.0318937 1.7668195 0.48273528
000250 b8 d3 81 c0 37 64 53 40 ce bf 92 c0 73 66 8c 40
       -4.0570946 3.3029916 -4.5859137 4.387506
000260 49 77 26 c0 cc 2b a6 40 ac 5c cb bf 9e 73 16 40
       -2.6010306 5.1928463 -1.5887656 2.3508067
000270 06 d7 c7 bf c3 4b 05 40 f6 f2 e3 bf f6 0f 4f 3f
       -1.5612495 2.0827491 -1.7808521 0.8088373
000280 fb d9 c3 40 54 e8 12 bf ba 75 68 3f 66 45 b6 bf
       6.120359 -0.57385755 0.90804636 -1.4239929
000290 33 71 8a c0 43 09 d3 3f db ba ba 3f ef 22 cb 3f
       -4.3263183 1.6487201 1.4588274 1.5870036
0002a0 96 57 a4 c0 a4 f0 2f 40 4b 75 47 bd cf cf 01 40
       -5.1356916 2.7490625 -0.048695844 2.0283086
0002b0 1c fd e8 bf 93 93 8b 40 59 3c 70 3e 8a 2a be 40
       -1.8202243 4.3617644 0.23460521 5.9426928
0002c0 d7 d9 2a bf 79 12 80 c0 99 26 9f bd a0 b9 73 c0
       -0.6673865 -4.002255 -0.07771034 -3.8082047
0002d0 bb e0 19 40 cd da a0 c0 fd cd 27 bd 92 95 3c 40
       2.4043415 -5.026709 -0.04096793 2.946629
0002e0 ad e0 a8 bf 91 8b e0 3f 7c dd ef bf 45 fb a6 3f
       -1.3193566 1.7542592 -1.8739467 1.3045431
0002f0 74 f1 fa c0 d8 8f 85 40 71 92 53 c0 78 f3 0f 40
       -7.8419743 4.173809 -3.305813 2.2492352
000300 c1 3f 15 c0 38 1a b5 bf 51 31 bf 3f 93 d0 fa 3f
       -2.3320162 -1.4148626 1.4936925 1.9594902
000310 17 2f 31 40 61 8d 3d bf 8e dc c0 40 63 9b 19 c1
       2.7684991 -0.7404385 6.026923 -9.600436
000320 f4 ed 85 c0 59 3d 2c c0 29 26 8c bf 7a 72 54 be
       -4.185297 -2.6912444 -1.0949146 -0.20746794
000330 9c 86 fc 3f bb ae 3b c0 e7 26 5b 3f e5 ec aa c0
       1.972858 -2.9325397 0.85606235 -5.341418
000340 da d8 c2 c0 62 e3 29 c0 34 dc 8f 40 60 95 76 40
       -6.088971 -2.6545033 4.4956303 3.8528671
000350 2b 5c 22 c0 ed c0 7a 40 02 5c ea 3f 9a da 34 40
       -2.5368755 3.9180253 1.8309329 2.8258424
000360 ba ff 20 bf 90 a3 99 3f 88 ae 12 40 60 d4 6c 40
       -0.6289021 1.200304 2.2919025 3.7004623
000370 1c 4c cc bf bb 4b f6 bd 7a 65 a3 3f 1b 26 9d c0
       -1.5960727 -0.12026163 1.2765343 -4.9109015
000380 f5 e1 d1 bf 69 f0 b3 bf a0 f2 02 40 1f 3b 38 40
       -1.6397082 -1.4057742 2.0460587 2.8786085
000390 5e f1 6b 3f 09 89 21 be ae ff 87 40 d3 84 0c c0
       0.9216517 -0.15774931 4.249961 -2.195607
0003a0 5f 7f 80 c0 8a a9 8f bf a7 56 93 40 95 86 b3 c0
       -4.015548 -1.1223614 4.6043277 -5.6101785
0003b0 8c 45 7f 40 5c b0 0f c0 6b 78 0f 40 25 94 ed 3f
       3.9886198 -2.2451391 2.2417247 1.8560835
0003c0 f9 28 2c 3f 80 4f 87 bf 4b 3f a4 3f 69 38 bb be
       0.6725002 -1.0571136 1.2831815 -0.36566475
0003d0 e9 bf 5b 3d 26 02 59 40 0a f6 7d c0 31 d2 0e 40
       0.053649817 3.3907561 -3.968142 2.231579
0003e0 cb 35 a2 3f 14 41 bc c0 5f 24 60 bf 48 13 80 40
       1.2672666 -5.882944 -0.875555 4.0023537
0003f0 b7 38 c0 3f 44 bb d7 c0 bf 4b 43 40 99 e3 f2 3e
       1.5017308 -6.7416096 3.0514982 0.47439268

arith.constant6 f4 [512]
000000 70 5b fb 3c e4 de bf bc f6 0d 03 bc 00 00 00 00
       0.03068325 -0.023421712 -0.007998934 0.0
000010 b1 0e 93 bc c5 d0 6c 3c 00 00 00 00 b2 ce 0b 3b
       -0.017951341 0.014454071 0.0 0.0021332917
000020 c3 ab 93 bc 00 00 00 00 00 00 00 00 93 43 0c bd
       -0.018026238 0.0 0.0 -0.03424413
000030 00 00 00 00 94 52 8f bc cc b8 dd bb 98 b2 85 bd
       0.0 -0.017495431 -0.0067664143 -0.06528205
000040 12 37 62 bb 8f f2 81 bc 0f 29 3d 3c 4e 4e a7 bb
       -0.0034517688 -0.015862731 0.011545434 -0.00510577
000050 70 26 b6 bb d8 4c 68 3c f7 4a 16 bb 91 2a 9f bc
       -0.0055587813 0.014178477 -0.0022932866 -0.019429477
000060 62 d9 a0 3d d6 3e a3 bb 00 11 94 3b 00 00 00 00
       0.078539625 -0.004981856 0.004518628 0.0
000070 00 00 00 00 ea 79 58 bb 26 6f bc 3c 19 35 af bb
       0.0 -0.003303165 0.023002218 -0.005346906
000080 00 00 00 00 3a 10 a8 bc 2f 5b c5 3b 5a 59 20 bc
       0.0 -0.02051555 0.006022833 -0.009786928
000090 60 bb 87 bc 16 3f 02 bc 94 87 92 bc 1b 31 04 bd
       -0.01656884 -0.007949611 -0.017886914 -0.032273393
0000a0 46 61 07 bc 20 6f 69 bb 0b 3e 18 bd 00 00 00 00
       -0.008262938 -0.0035619214 -0.037168544 0.0
0000b0 00 00 00 00 c0 d4 fb bb 61 cc 89 3d 34 8c 13 bd
       0.0 -0.007685274 0.06728435 -0.03602238
0000c0 cd c9 ad 3c 00 00 00 00 45 05 01 3d 3e 4b ae 3c
       0.02121439 0.0 0.031499166 0.021276113
0000d0 13 0e 6d 3d 27 db 11 3b a7 21 32 bb 73 9f f2 bc
       0.05787475 0.002225587 -0.0027180703 -0.029617047
0000e0 a9 2b 99 bd bf 30 ac bb 00 00 00 00 43 6e 95 bc
       -0.07479031 -0.0052548344 0.0 -0.018241053
0000f0 00 00 00 00 96 87 12 3d 6a ec f9 ba 85 a6 e2 bb
       0.0 0.035773836 -0.0019067649 -0.0069168233
000100 c3 67 98 bb f7 5b eb bb 87 ca 28 3d c9 2f a1 3b
       -0.0046510412 -0.007182594 0.04120877 0.0049190265
000110 64 81 6c bc de c7 6c bc f9 7c f1 3d 8b a5 02 bc
       -0.014435146 -0.014451949 0.11791415 -0.007974039
000120 53 f4 98 bc 00 00 00 00 73 68 0e bc c0 ef 25 3d
       -0.01867119 0.0 -0.008691895 0.040511847
000130 f4 9e 14 3d c7 bf 08 bd d8 40 b5 bb 51 5b 33 3d
       0.036284402 -0.033386018 -0.0055314116 0.043788258
000140 00 00 00 00 00 00 00 00 00 00 00 00 8d 71 c0 bc
       0.0 0.0 0.0 -0.023491645
000150 19 9d bd bb 0e 01 19 bc 7e c1 93 3c 3e 99 c6 bb
       -0.0057865498 -0.00933863 0.0180366 -0.0060607484
000160 cf 67 0a bc 00 00 00 00 f0 1f 26 bd 30 ed 39 bc
       -0.008447601 0.0 -0.0405578 -0.011348054
000170 fa 99 de bb c3 09 04 3d 24 aa 89 bb d8 25 b6 bb
       -0.006793258 0.032235872 -0.0042011905 -0.0055587105
000180 13 83 05 bd 36 a1 c8 3c 00 00 00 00 14 a2 1c 3d
       -0.032595705 0.024490934 0.0 0.038240507
000190 1b 2f da bc df 1a e3 bc 00 00 00 00 74 8b 04 bc
       -0.02663379 -0.027722774 0.0 -0.008089889
0001a0 38 7d 8c 3c 69 f3 59 bd 23 29 87 bc 3a d9 93 bc
       0.017149553 -0.05321065 -0.016499108 -0.018047918
0001b0 c3 19 70 bb 38 50 b0 bb 61 33 10 bc e4 97 40 bc
       -0.003663645 -0.0053806566 -0.008801312 -0.011754964
0001c0 85 41 6b bd bc 66 b5 bc c7 3a 3b 3d ec 00 19 3c
       -0.05743553 -0.022143714 0.04571035 0.009338599
0001d0 ce 4e 4a 3a 7b 4a d9 bb 00 00 00 00 4f 4f 35 3d
       0.0007717431 -0.006631193 0.0 0.044265088
0001e0 00 00 00 00 00 00 00 00 de cf 72 3d 0f 62 a3 bc
       0.0 0.0 0.05928027 -0.019944219
0001f0 66 e8 e8 bb a0 39 cc bb 94 b0 09 bd 85 ad c9 bc
       -0.007107782 -0.0062324554 -0.033615664 -0.024618873
000200 aa 03 3f 3d d5 08 9c 3b 16 65 f2 3b 8f bc 3f bc
       0.046634354 0.004761795 0.0073973043 -0.011702671
000210 1b b9 4d 3b 03 54 ab bb 00 00 00 00 71 b3 e5 3b
       0.003139085 -0.005228521 0.0 0.0070099165
000220 00 00 00 00 00 00 00 00 af 58 2c bc ea a9 c5 bc
       0.0 0.0 -0.010519191 -0.024128873
000230 e6 0f 01 3c 7f 36 28 3d 3f 27 35 bc 35 82 c0 3b
       0.007877326 0.041067597 -0.01105672 0.005874897
000240 e5 b5 6e bc a6 96 04 bc 00 00 00 00 f9 75 8b bc
       -0.014569734 -0.008092558 0.0 -0.017024027
000250 1f 07 c3 bb a7 85 a3 bc 00 00 00 00 ff f6 45 bd
       -0.0059517766 -0.019961191 0.0 -0.048331257
000260 36 c7 36 bc f3 ef 0d 3d 11 be cc bc 12 c8 c4 bb
       -0.011155894 0.03465266 -0.024992974 -0.0060052956
000270 46 61 99 bc 0a ef e0 bc ef 6d 02 bd ed f7 71 bc
       -0.018723141 -0.027457733 -0.031843122 -0.014768583
000280 00 00 00 00 b5 72 48 bc cf 60 ed bb 4c ba 87 bb
       0.0 -0.01223438 -0.0072442065 -0.0041420814
000290 d5 55 4e ba dd 58 4a bc 00 00 00 00 fb c8 c4 bb
       -0.00078710663 -0.012350288 0.0 -0.006005404
0002a0 00 00 00 00 00 00 00 00 fb 92 7b ba 30 ac c9 bc
       0.0 0.0 -0.0009596792 -0.024618238
0002b0 00 00 00 00 e3 d5 74 bb b3 26 b6 bb 98 56 d0 bc
       0.0 -0.0037358932 -0.0055588125 -0.025431916
0002c0 00 00 00 00 c3 6f 07 3d 3a 12 3d 3c 0b 12 09 bd
       0.0 0.03306557 0.01153999 -0.033464473
0002d0 32 49 18 bc 9d a3 86 bb 53 a7 15 3b 8a d5 d1 3c
       -0.009294795 -0.0041088597 0.0022835329 0.025614519
0002e0 2f 89 ca bb bc 3e 17 3d 8b 2e a4 3a 91 29 aa bc
       -0.0061809043 0.036925063 0.0012526078 -0.020771774
0002f0 59 58 de bb 36 c5 e5 bc 00 00 00 00 da f2 b7 3d
       -0.006785434 -0.028048139 0.0 0.08981867
000300 b7 bd 46 bc c2 7b aa bb 0b f0 d8 3c 2a 8b bd bc
       -0.0121301925 -0.0052027414 0.026481649 -0.023137648
000310 7b a1 ea bb b9 ed 12 bd e1 9b 1c bc 00 00 00 00
       -0.0071603633 -0.03587124 -0.009558649 0.0
000320 41 f3 a7 bb d3 d8 6d bc ee 88 41 bd 61 6f 10 bc
       -0.0051254337 -0.014517027 -0.047249727 -0.008815617
000330 00 00 00 00 6a b8 ed bb 83 9e a2 bb b3 2a 0a 3e
       0.0 -0.00725465 -0.0049627437 0.13492851
000340 00 00 00 00 00 00 00 00 b6 ef f3 bc 73 59 19 bd
       0.0 0.0 -0.029777389 -0.03743882
000350 cb 41 75 bb 44 f6 3d bc de f0 84 bc c3 46 1d 3d
       -0.003742325 -0.011594359 -0.016228136 0.03839756
000360 74 26 b8 bc e9 47 eb bb 3e aa 90 bb 0e 58 1c bd
       -0.022479273 -0.007180203 -0.0044148257 -0.038169913
000370 e2 ab fc bc 00 00 00 00 ca 8a c4 3d fe b6 07 3c
       -0.030843679 0.0 0.095967844 0.008283375
000380 1c 8a 6e bb 00 00 00 00 c9 ae 28 bc e2 c2 13 bd
       -0.0036398238 0.0 -0.010295578 -0.036074527
000390 7a 83 3f 3b af b3 81 bc a9 2f 51 bc 2e 97 2c bc
       0.0029222653 -0.01583275 -0.012767711 -0.010534091
0003a0 50 8a 25 bc 8d 64 11 3d f9 e0 29 bc 1e 3d 7e bc
       -0.010103777 0.035496283 -0.010368579 -0.015517501
0003b0 a6 38 03 bc 43 bd 45 bc bd fa a9 3d ba 5b 94 bc
       -0.0080091115 -0.012069049 0.08299778 -0.018110145
0003c0 00 00 00 00 de 57 66 bb 00 00 00 00 ec 38 d4 bc
       0.0 -0.0035147588 0.0 -0.025906049
0003d0 4b 19 58 ba 2a 3d 90 bb e1 62 4f bc 00 00 00 00
       -0.0008243515 -0.0044018226 -0.012657852 0.0
0003e0 cb 73 6b bc 33 42 b0 bc 64 26 bb bb e9 01 46 3b
       -0.014370869 -0.021515941 -0.0057113636 0.003021354
0003f0 65 72 cc bb 69 cf b3 bb 6e 20 33 bc a8 5b 09 3d
       -0.006239223 -0.0054873717 -0.010933025 0.033534676

sequential_1/dense_1/MatMul f4 [512, 126]
000000 9f af fd bc f0 8c 18 be ff 38 5d bc 1e 8e 9f bd
       -0.030967532 -0.14897513 -0.013502358 -0.077907786
000010 ef 79 80 bd 81 18 15 3e b8 dd be bd 31 83 06 bd
       -0.06273257 0.14560129 -0.09319633 -0.032839958
000020 46 fc f0 bb 70 94 a4 3c fc 33 d0 3d ce ca e3 3d
       -0.007354292 0.020090312 0.10166165 0.11122666
000030 9f 85 1b be 67 c8 64 3d af e8 6b 3c a2 0e b1 3d
       -0.15187691 0.05585518 0.014398738 0.08645369
000040 39 eb db 3d 32 f5 dd bc 31 b1 dc bc 7f 5c 75 bc
       0.107382245 -0.027094457 -0.02693996 -0.014975666
000050 57 ee 8a bd 6d 02 90 3d 6e 17 a3 3d ee ea 38 be
       -0.06783741 0.07031713 0.07963453 -0.18058369
000060 15 12 1e bd 8f 4c eb 3d f0 c4 3f be ae f1 66 bd
       -0.038591463 0.11489212 -0.1872747 -0.056382827
000070 58 06 29 3d 54 14 34 be 18 da c2 b9 f0 2f 88 3d
       0.041265815 -0.1758588 -0.00037165056 0.06649768
000080 a2 74 03 be ca 00 b9 3c 06 14 a8 3c f0 74 67 bd
       -0.1283746 0.022583384 0.02051736 -0.056508005
000090 12 45 f5 bc d3 11 07 bd 52 84 ce bd 93 73 a1 3d
       -0.029940162 -0.032975983 -0.10083832 0.07883372
0000a0 bb 8c a0 3d 1e 1c 16 be 01 f6 e2 3c 82 5c 89 bc
       0.07839342 -0.14659163 0.027705194 -0.016767744
0000b0 8d 31 dd bd e4 e7 2d bd 38 01 7f bd 34 51 ba 3d
       -0.10800467 -0.042457476 -0.06225702 0.090975195
0000c0 22 84 89 bd 18 15 47 3d 6b c2 16 3e 4e 1a e5 bc
       -0.067146555 0.0486041 0.14722602 -0.027966645
0000d0 b7 05 a0 3c f7 22 22 be 87 d6 e7 3c a7 0d af bd
       0.019533975 -0.1583365 0.028300537 -0.08547526
0000e0 65 b0 60 bd 2b 2d 0d 3e 58 b0 9a bd a1 ce 19 bc
       -0.054855723 0.13786761 -0.07553166 -0.009387643
0000f0 15 d4 e3 3d 55 41 ac bd c9 00 60 3d a9 3b 2b bd
       0.11124436 -0.084108986 0.05468825 -0.041804943
000100 35 df 07 bc bf ea c4 3d 36 98 09 bd fb c6 7d 39
       -0.008292963 0.09615087 -0.033592425 0.00024202086
000110 64 4b 2f 3d 01 ac b7 bd 0f 9a cb 3c 71 60 98 bc
       0.042796507 -0.08968354 0.024853734 -0.018600674
000120 bf 51 03 3c 63 ad 0e 3d 5b 1b d1 3c 42 33 1c bd
       0.008015095 0.034833323 0.02552574 -0.03813482
000130 b3 20 7e 3d 5f 79 b5 bb 4b 5d 48 3d ff 82 be 3d
       0.062042903 -0.00553815 0.048917096 0.09302329
000140 14 3d 8a 3b 44 61 91 bd 1a 07 95 3d 44 f8 d3 bd
       0.004218707 -0.0709863 0.07276745 -0.10350087
000150 57 07 c8 3d d4 0b c4 3c 62 c5 84 bd f5 e6 40 3d
       0.09767025 0.023931421 -0.0648296 0.047095258
000160 5a 13 b4 3d 0e 02 23 bd 18 c0 99 3b c7 36 dd bb
       0.087927535 -0.03979688 0.004692089 -0.0067509147
000170 7c d2 94 bd 86 6b 53 bd 86 82 98 bd 2e 89 8f 3d
       -0.07266709 -0.051616214 -0.0744677 0.07008587
000180 97 09 b7 bb eb ce 18 bd 57 13 94 3d e4 0a ce 3d
       -0.00558586 -0.037306707 0.07230251 0.10060671
000190 21 0a 20 be 70 59 ae bd 1a c3 9c bd 2b 8e 92 3b
       -0.15628864 -0.085131526 -0.076544 0.004472514
0001a0 f6 28 00 be d8 d7 4c bd d2 c0 a9 3d e7 76 9f bd
       -0.12515625 -0.050010532 0.08288731 -0.07786351
0001b0 52 86 2f 3d 0e 96 bb bd 16 8e 62 bd 75 04 c4 bd
       0.042852707 -0.0915948 -0.055311285 -0.095711626
0001c0 c2 8e 33 bc 79 4e 87 be 9c 7a 0d 3d 16 be c7 3d
       -0.010959329 -0.26427057 0.034540758 0.09753053
0001d0 c0 7c da ba a6 6c 04 3d 53 f6 01 bd ef 9a ef bc
       -0.0016669258 0.032330178 -0.031729054 -0.029248683
0001e0 8a 11 1a 3d 6a 20 4c bd ff 46 0f be b4 6f a1 bb
       0.037614383 -0.0498356 -0.13991927 -0.004926646
0001f0 dd f6 dd bd c9 30 3d be a2 b0 1d 3d 3e c8 ca bd
       -0.10838101 -0.18475641 0.03849853 -0.099014744
000200 79 43 a1 bc cd 47 05 3d 31 f6 01 bd bc 1c 61 bc
       -0.019685494 0.032539178 -0.031728927 -0.013739761
000210 de 10 2a 3c a0 46 32 3c 84 b6 c1 3d 69 68 27 3c
       0.010379998 0.010881096 0.0945864 0.010217764
000220 1a c9 90 3c c9 0b de 3d 51 71 95 3d ac 4d 60 3d
       0.017674018 0.108420916 0.07297004 0.054761574
000230 61 c3 8d 3d 65 ff 91 bd b4 86 de bd 71 41 98 bd
       0.06922031 -0.07128791 -0.10865536 -0.07434357
000240 07 66 9f 3d 68 db cc bd 51 11 0d be a6 b2 3a bd
       0.07783132 -0.10002786 -0.13776137 -0.04558053
000250 25 00 57 bd 76 7c 49 bd 79 1b 29 3a 32 b9 2b bc
       -0.052490372 -0.04919096 0.0006450932 -0.010481166
000260 0b 44 a6 3a d4 f5 cc 3c 79 24 29 3c 55 df 55 bb
       0.0012685073 0.025019564 0.010323637 -0.0032634337
000270 6c a9 ac bd e5 20 6c 3d 8f f0 0b be 6f c6 34 3d
       -0.08430752 0.05764856 -0.13665985 0.044134554
000280 11 6a 2a bd d1 2b 07 3d 50 b7 9d bd 89 98 35 3c
       -0.04160506 0.03300077 -0.0770098 0.0110837305
000290 c3 e2 0e bd 38 34 20 bd 6d 28 29 3d ad 80 b5 bc
       -0.034884226 -0.0391123 0.04129832 -0.022156084
0002a0 1b 85 ee 3b 69 4a 3c 3d 4b e4 33 3d 16 1a dd 3c
       0.007279051 0.0459694 0.04391889 0.026989978
0002b0 b0 b0 43 bd 8e 67 a5 bd 52 6a b8 3c d4 ae ca bc
       -0.047775924 -0.08076392 0.022511635 -0.024741568
0002c0 3d 73 59 3d 1b cd 53 bd 83 e2 53 3d 6e 90 5a bd
       0.053088415 -0.051709276 0.05172969 -0.053360395
0002d0 90 e5 a7 bd 40 47 a9 bd f9 40 3e bd 43 67 27 bd
       -0.081980824 -0.08265543 -0.04644868 -0.040869962
0002e0 04 5d 0f 3d 19 74 b5 bd 0f bb 13 3d a1 68 a6 3d
       0.035000816 -0.088600345 0.036067065 0.08125425
0002f0 40 24 c1 bc f3 dc 5f bd 94 6b f4 bc a6 6b 6b 3d
       -0.023576856 -0.054654073 -0.029836453 0.05747571
000300 da 10 03 3d fd 77 ba 3d a8 7f 02 bd c4 95 ee 3c
       0.031998493 0.09104917 -0.031860024 0.029124148
000310 32 32 78 bd 5a 2f 1f 3d b8 d4 69 3c 66 ab 8f bd
       -0.060594745 0.038863517 0.0142719075 -0.070151135
000320 6a 10 0e bd ed 46 5c bd 30 10 c4 3c 7d 85 a8 3d
       -0.034683622 -0.053778578 0.0239335 0.08228586
000330 22 c3 35 bd 94 6b 1e bd 9b d5 c0 3d 41 b6 8c 3d
       -0.044375546 -0.038676813 0.09415742 0.068707
000340 46 1c 94 bd d0 22 8e bb 5b 18 a1 3d be 83 90 bd
       -0.07231955 -0.004337646 0.078659736 -0.07056378
000350 30 42 a3 bc f0 3b bf 3b 96 8d 12 3d 48 2e 5d bc
       -0.019929022 0.0058360025 0.035779558 -0.013499804
000360 b7 f2 8b 3d 80 85 b4 ba 83 26 ab 3d 4a 87 75 3d
       0.068334036 -0.0013772696 0.08356955 0.059943475
000370 95 ab 92 bd 2e f4 3f 3d 65 70 87 bd 05 12 22 bd
       -0.07161633 0.046863727 -0.066132344 -0.039567966
000380 c0 84 3b 3b 34 5c 86 bc b0 2a af 3c 88 b2 5e bd
       0.002861306 -0.016401388 0.02138266 -0.05436948
000390 4b 58 b8 bd d9 7b 63 bd ec d5 db bc d4 42 71 bd
       -0.090012155 -0.055538032 -0.026835404 -0.058901623
0003a0 91 a8 bf bd 4e 59 04 3d d6 34 7f bd 34 e1 99 bc
       -0.09358323 0.03231173 -0.062306248 -0.018784143
0003b0 68 6e f7 bc 41 f8 c4 3d 01 33 73 bd 5d 10 89 bd
       -0.030204013 0.09617663 -0.059374813 -0.06692574
0003c0 2f a4 53 bd f7 37 1e bd 8e a6 8b bd 7e a9 0d 3d
       -0.05167025 -0.03862759 -0.06818877 0.03458547
0003d0 59 35 80 3d ca 59 54 3d c5 7f b9 bd 13 78 b7 3d
       0.06260175 0.051843442 -0.09057573 0.08958449
0003e0 ac fd 94 bd 74 95 88 bc a2 a2 07 bd fd e2 a7 3d
       -0.072749466 -0.016672827 -0.033114083 0.081975915
0003f0 02 79 6b bd a4 69 da 3a 71 6c 8c bd 28 6b ca bc
       -0.05748845 0.0016663563 -0.06856621 -0.0247093
